Ablation Study/model A/best_model.pth (torch, 344548 bytes, 7 tensors)

attention_model.input_proj.weight f4 [128, 148]
000000 1c 43 29 3d 9b 6c 4e bd 26 ae 1f bd b4 bd e1 3c
       0.041323766 -0.050396543 -0.03898444 0.027556278
000010 4c 30 15 be fd 27 1d 3c fb 02 1e 3e 7e 65 33 be
       -0.14569205 0.0095920535 0.15430824 -0.17519185
000020 08 46 ac bd 5c e9 4b 3d 9c 63 b1 bc ea b1 f8 bd
       -0.08411795 0.049783096 -0.021653943 -0.121433094
000030 87 2b 77 3c 62 d5 0d 3e d5 a3 0b bd 80 7c b2 bc
       0.015086061 0.1385093 -0.03409179 -0.021787882
000040 b0 b6 50 bc b5 cd 28 bd a6 48 bf bc f4 95 1e 3d
       -0.012738869 -0.041211803 -0.023350071 0.038717225
000050 fd 10 24 bd d0 4c 5b 3e 33 66 00 bf 67 89 b5 bd
       -0.040055264 0.2141602 -0.50155944 -0.08864098
000060 ab 8c cb bd 30 48 48 be 9b c0 7c be bc 1a 3f 3f
       -0.0993894 -0.19558787 -0.24682848 0.7465017
000070 ae bf 28 3e 56 a1 a3 bd 46 6b 01 be 59 05 62 3e
       0.1647937 -0.07989757 -0.12638578 0.22072352
000080 e5 8d 50 bd d5 fa c2 3e 09 14 53 3e 8b fb e9 3e
       -0.05091657 0.38081995 0.20613112 0.45699725
000090 fc 70 7d be 13 5a f6 3e 9c ce cb 3d dd e6 8a bd
       -0.24750131 0.48115596 0.09951517 -0.06782315
0000a0 e5 ee 9b 3e fa 3a 83 be 1e d5 09 be 34 f7 bd 3d
       0.304557 -0.25630933 -0.13460204 0.09275666
0000b0 ef 82 97 be 3f fb 4a bf f0 85 7a bc 70 c2 4e be
       -0.29592082 -0.7928962 -0.015290722 -0.2019136
0000c0 d7 09 51 bf cd 92 cf 3e 6b 8e b6 3e 6e a8 f4 3e
       -0.8165564 0.40541688 0.3565553 0.47784752
0000d0 02 3e 26 3f 3e a0 3c be d8 60 83 bd f1 4c 7e be
       0.64938366 -0.18420503 -0.06414956 -0.24834038
0000e0 b5 c5 4b 3e 66 52 b3 3c 13 c8 29 be 83 6c cf 3d
       0.19899638 0.021889877 -0.16580229 0.10128119
0000f0 39 d4 8c be 97 83 1a be ea 5b 70 be cb e6 ec 3e
       -0.27505663 -0.1508926 -0.23472562 0.4626983
000100 43 0a 4f 3e 49 5a 5a be 4e 2c ea be 28 f5 cb be
       0.20218758 -0.21323504 -0.45736927 -0.39835477
000110 10 6b 6b 3e 7f fa da be d5 f5 6b 3e b7 bc 0c 3e
       0.2299006 -0.42769238 0.23042996 0.13743864
000120 b6 01 c1 bd a5 c6 a1 be be c9 89 3e da ef be bc
       -0.094241545 -0.31596866 0.2691173 -0.02330773
000130 0e 02 d3 3e eb 5c 44 bd f7 bd 37 be 19 7a 01 3e
       0.41212505 -0.047940176 -0.1794356 0.12644233
000140 f3 b9 5e 3e 9e 13 54 3e a6 96 42 3e 64 65 79 be
       0.21750621 0.20710608 0.1900278 -0.24355084
000150 78 e8 1a be c5 e8 c4 be c9 78 7f be f9 62 05 be
       -0.15127742 -0.3845884 -0.2494842 -0.13026036
000160 2a ac 65 be 75 41 8d bd 74 f3 43 bf c6 7d cd bd
       -0.22428957 -0.068972506 -0.76543355 -0.10033755
000170 1d 6e 92 be fc 9c 00 bf ec 99 0c bf 0a 31 3e bf
       -0.28599635 -0.5023954 -0.54922366 -0.7429358
000180 2f 95 24 be 17 3e 78 3e eb 33 c6 be 7c ed 77 be
       -0.16072534 0.24242435 -0.38711485 -0.24211687
000190 fc 32 d3 be 43 09 b3 3d 35 5a 56 be ba 50 ea be
       -0.41249835 0.08742001 -0.20932849 -0.45764714
0001a0 d5 63 3b be 9a e0 d1 be 93 12 a1 3c bb 35 d2 3e
       -0.18299802 -0.4099167 0.019662177 0.41056618
0001b0 f8 f5 22 3f 97 49 a6 be 78 af f8 bd 7f 83 b0 be
       0.6365657 -0.3247802 -0.12142843 -0.34475324
0001c0 d4 5d 19 3d c0 f5 0f 3f 66 6e 00 be 85 58 25 bf
       0.037442997 0.5623436 -0.12542114 -0.64588195
0001d0 5d b6 9b bc 71 80 6f 3e 51 e9 12 3f 26 10 06 3f
       -0.019007856 0.2338884 0.5738726 0.5236839
0001e0 67 24 cd 3d 8a b4 90 3e dc f4 61 3d ab bf d6 be
       0.10016709 0.2826274 0.055165157 -0.41943106
0001f0 5b 3d 1e bd a6 ca 8d bd 8e 29 b5 3b 6c d9 c7 3e
       -0.038632732 -0.06923418 0.0055286353 0.39033067
000200 ba b5 b2 bd ce 48 10 bf 40 12 ff 3e 50 49 69 be
       -0.08726068 -0.5636109 0.4981861 -0.22781873
000210 cd 18 97 be 77 fe 0a be 7b 7b a8 bd 5a c9 d9 bc
       -0.2951111 -0.13573633 -0.08226677 -0.02658527
000220 1d 40 f1 be 2c 15 2f be d5 54 a9 be d2 f6 08 be
       -0.47119227 -0.1709792 -0.33072534 -0.13375404
000230 7a bd 26 3f 85 0f 77 3e 16 e4 71 bd dd de c8 3d
       0.6513287 0.24127014 -0.05905541 0.09808133
000240 30 3c 2f bf af 9d f0 3d a6 b7 89 bb 1a 0d 71 be
       -0.68451214 0.11748826 -0.004202801 -0.23540154
000250 4c a4 47 bd df 14 ec 3d fa 27 75 bc 9c 2f 57 be
       -0.04874067 0.11527418 -0.014963144 -0.21014255
000260 75 ea 84 3e 83 21 0f 3e e5 6f 10 3e 85 c7 8a be
       0.25960127 0.13977627 0.14105184 -0.27105346
000270 a7 4a 71 be 3a 69 50 be 1e 64 eb 3d 33 51 26 be
       -0.23563634 -0.20352641 0.11493705 -0.16241913
000280 ef 6b a1 3e a9 ac 04 be ae de f4 3d 88 14 65 3e
       0.3152766 -0.1295649 0.11956535 0.22371113
000290 3f 49 55 be 91 2e 52 3e c5 d2 8b bd ee 90 bc 3d
       -0.20828722 0.20525576 -0.068273105 0.09207331
0002a0 f0 50 34 be 49 34 b0 3e 72 59 f6 bd 37 ad f4 be
       -0.17609 0.3441489 -0.12028779 -0.47788402
0002b0 6d 3e d5 3e 6b e7 91 3e 6a 67 45 bd a0 a9 84 be
       0.4164919 0.2849687 -0.048194326 -0.25910664
0002c0 0c 63 e9 bd 52 8b fa 3e af a4 89 be 9e eb 3b be
       -0.11395845 0.48934418 -0.26883456 -0.183516
0002d0 d7 8f f3 3e 5a 33 f3 be a6 fd fb 3d 73 ee 6e be
       0.4757068 -0.47500116 0.12304239 -0.23333149
0002e0 71 eb 8f be ee d2 f6 bd 68 ac cd bd 30 57 66 be
       -0.28109315 -0.120519504 -0.100426495 -0.22494197
0002f0 2f 31 40 3d 7f 19 9c be d2 83 0a bf 1a db 1c bd
       0.046921905 -0.30488202 -0.5410739 -0.03829489
000300 52 2e c6 be 54 2f 9f 3e 56 54 bc bd ad 55 0f 3e
       -0.38707215 0.31090796 -0.09195773 0.13997526
000310 14 59 93 be 28 23 15 3d 44 93 41 bb 7b 22 35 3e
       -0.287789 0.03641048 -0.002953724 0.17688935
000320 6b c1 b2 be 99 28 bc 3e f2 23 70 be 44 45 c0 be
       -0.3491319 0.36749724 -0.23451212 -0.37552845
000330 3a cf 0c 3f 4a 5f 10 bf de ad b3 3d aa c1 df 3e
       0.550037 -0.563954 0.08773397 0.4370244
000340 49 8c 92 3e 1e 24 bf be 15 8b ba be d4 b5 cc bd
       0.28622654 -0.37332243 -0.36434236 -0.099956185
000350 cf 22 85 bd 96 5a 9c be 4b 72 25 bf d3 8c 94 be
       -0.0650078 -0.30537862 -0.6462752 -0.2901369
000360 0f 41 4d be 72 d5 a4 be ae 6f 85 be 63 d4 3b be
       -0.20044349 -0.32194096 -0.26061767 -0.18342738
000370 ca 1b a5 3e 1b 83 4a bc 3c c9 7a be 5e 7b b1 3b
       0.32247764 -0.01236036 -0.24490827 0.005416318
000380 42 78 89 be 1b 79 54 3e dc af 53 be 75 b7 74 bd
       -0.26849562 0.20749323 -0.20672554 -0.05974527
000390 1c bd b2 3d 67 06 ad 3e 98 46 ba bd 19 fb ab 3d
       0.08727476 0.33793947 -0.09095496 0.083975025
0003a0 a9 c3 bb 3a e5 28 26 3c d0 57 59 3e f0 f1 8b be
       0.0014325279 0.010141586 0.21224904 -0.2733302
0003b0 75 fd 21 be 82 fc 4c bd 6d 8d f7 be 8f b7 1f bf
       -0.15819342 -0.050045498 -0.48350087 -0.62389463
0003c0 a0 d7 36 be ed 2b e3 3e 89 d9 5c be be d2 52 be
       -0.17855692 0.4436945 -0.21567358 -0.20588204
0003d0 18 0f 16 3e 75 69 c3 be d6 15 c2 be 35 cd ab 3e
       0.14654195 -0.38166395 -0.37907284 0.33554998
0003e0 98 e4 04 bc 9a 0a 3f bd 8b 37 63 3d 1c 18 c6 3e
       -0.008111142 -0.04664097 0.05547289 0.3869027
0003f0 3d e5 56 bd 77 18 ed be 4c 27 4d bd db fa dc be
       -0.052464712 -0.46307728 -0.050086305 -0.43160138

attention_model.input_proj.bias f4 [128]
000000 57 2b 43 3c 88 e8 87 3a 14 c9 38 3c 16 71 30 3c
       0.0119121885 0.0010368982 0.0112784095 0.010769149
000010 32 b7 fc 3a b4 6a b9 ba bd 67 18 bd 7a 6c 8f bb
       0.0019280671 -0.001414618 -0.037208308 -0.004376945
000020 0a f3 3e 3c 1a 3f 91 3c 69 65 59 3c 4f 22 20 3c
       0.011654625 0.017730284 0.013268807 0.009773805
000030 e2 89 bb 3b ef 1a b0 3b d7 3a e4 3c fc dd 35 3b
       0.005723224 0.0053743045 0.027860088 0.0027750721
000040 85 82 b9 3c e5 17 a8 3c 4c c2 db 3c f6 0c 55 bc
       0.022645244 0.020519206 0.026826046 -0.013003578
000050 b7 cd 0d bc c1 e8 29 ba e1 a0 44 ba a7 9a 11 bb
       -0.008655003 -0.00064815214 -0.00075007795 -0.0022217424
000060 a7 81 9c 3c 0b b3 4f 3b 46 f6 84 bc 5a 20 94 3b
       0.019104792 0.0031692411 -0.016230714 0.004520458
000070 63 90 8d bb f7 6b 98 ba 55 67 e2 3b 0a 10 b9 bb
       -0.0043201908 -0.0011628856 0.006909291 -0.005647664
000080 3a 3f 6d 3d d9 c4 67 3c fa 76 32 bc f3 cd 02 3b
       0.057921626 0.014146053 -0.010892624 0.001995918
000090 ff db c0 b9 19 e2 c2 bb 26 5d e5 bb 13 5d 16 bc
       -0.00036785004 -0.005947363 -0.0069996295 -0.009177464
0000a0 84 4e 83 3c 6e 4e da bc 5f 05 dc 3b 4f 83 5e 3b
       0.01602865 -0.026648726 0.0067145075 0.0033952778
0000b0 eb 4e a6 bc f6 86 97 bc 7e fa 58 3c 93 d5 84 3b
       -0.020301303 -0.018496972 0.013243316 0.0040537803
0000c0 61 2a 05 3c 50 2a 24 bc 6b 53 40 bb d4 d5 fe ba
       0.00812778 -0.010019854 -0.0029346596 -0.0019442388
0000d0 41 38 34 3c 0a ac 1c 3c 3a 12 54 3c 90 92 4d bb
       0.01099974 0.009562502 0.012943799 -0.0031367876
0000e0 00 06 e3 39 96 72 9b 3c bf 76 75 bb 9a 5e 09 bc
       0.00043301284 0.018975537 -0.0037454811 -0.008384371
0000f0 d5 ea 2d 3a f5 72 bf 3b 59 01 22 bc ce e6 fd bc
       0.0006634419 0.0058425614 -0.009888017 -0.030993845
000100 a6 89 a0 bb c6 81 2f 3a 16 32 33 bc 4f 90 b0 3c
       -0.0048992215 0.0006695058 -0.010937234 0.021553187
000110 24 66 61 bc 4e 56 84 b9 67 45 70 bb 26 81 2c 3b
       -0.013757262 -0.00025241304 -0.003666246 0.0026322096
000120 ac 87 9d 3b 8d 4f 8d 3c 83 47 67 bc c8 f6 de 3a
       0.004807433 0.017249847 -0.014116171 0.0017010802
000130 ce e1 02 3c 65 41 c1 bb d8 1d 1e bc 6d 42 91 bc
       0.007988406 -0.005897688 -0.00965067 -0.01773187
000140 09 1f 98 3c 0d 8f a3 3a 53 75 70 bc 54 c0 ef ba
       0.018569486 0.0012478546 -0.01467641 -0.0018291571
000150 ce 98 96 bb e5 ff 45 3b 4d da c8 3c bf dc 38 bc
       -0.0045958525 0.003021234 0.024518156 -0.011283099
000160 77 06 67 bc f6 4e 79 3c e4 9e 26 3c 59 60 44 3c
       -0.014100662 0.01521658 0.010169718 0.011985862
000170 09 95 81 bc 10 10 6b bc b9 04 94 bb f9 ae b2 3c
       -0.015818136 -0.014347091 -0.0045171645 0.02181195
000180 1f 51 34 bb 89 76 2e 3c 67 fa 39 3c 85 5a a9 bb
       -0.0027514172 0.010648378 0.0113512045 -0.0051682615
000190 58 21 b6 3c ba 46 95 b9 cd 1e aa bc 6a 26 0d bb
       0.022232696 -0.0002847219 -0.02076664 -0.002153779
0001a0 97 fd 2a bb 71 79 25 3c 5b d9 c9 3b b1 c7 04 bc
       -0.0026091093 0.010099755 0.006159944 -0.008104251
0001b0 1b 71 26 3d 5f 89 89 3b 47 10 20 bc 08 46 d5 bc
       0.04063521 0.004197284 -0.009769506 -0.02603437
0001c0 5c bc 1b 39 27 db 09 bc 58 2f 24 bd 2c 13 f9 ba
       0.00014852121 -0.008414066 -0.040084213 -0.0019002906
0001d0 18 c6 05 39 b4 25 9e bc f0 59 b6 bb 27 d9 c3 bb
       0.00012757664 -0.019305088 -0.0055649206 -0.0059768143
0001e0 22 3f c3 3b 81 75 6b 3c 69 c4 dd 3a ec 3c e4 ba
       0.0059584538 0.014371277 0.0016919497 -0.0017413176
0001f0 5f 6d c3 3b 85 70 a8 3b e0 10 af 3b 59 c8 22 3c
       0.005963966 0.0051403665 0.005342588 0.009935462

attention_model.attn.in_proj_weight f4 [384, 128]
000000 f5 76 86 3e 0f 57 7d bd 87 9a 63 bc e7 09 19 3e
       0.26262632 -0.061850604 -0.013891823 0.14945184
000010 cf 5e b7 3e e5 07 0d 3e ba 38 93 be 96 c5 7c 3e
       0.3581452 0.13772543 -0.28754216 0.24684748
000020 98 32 b9 3d e3 db 20 3e a8 cc 6a 3e 00 62 b1 3d
       0.09042853 0.1570888 0.22929633 0.0866127
000030 bc 65 77 3d d9 1a 8f 3e 30 18 ec 3d fd e3 56 3d
       0.060399756 0.2795017 0.11528051 0.05246352
000040 11 b1 20 be 16 93 a6 3d 21 1a cf bc c2 10 14 3d
       -0.15692545 0.08133523 -0.025281014 0.036148794
000050 f1 3f 21 3e 05 5f 21 3e 35 e3 0c 3b 34 e1 da bd
       0.15747048 0.15758903 0.002149773 -0.10687485
000060 b6 e1 5c 3b a2 ad 63 3b d9 40 60 bd 33 b2 cb 3d
       0.003370387 0.0034740944 -0.054749344 0.09946098
000070 52 c6 64 bd 69 36 f1 3c 70 c6 73 3e 5c 83 5a be
       -0.055853195 0.02944489 0.23806167 -0.21339172
000080 23 bb 42 3e 3a a9 65 bd dc 4a 88 be dc f7 03 3e
       0.190167 -0.05606959 -0.26619613 0.1288752
000090 c2 c2 49 bc 26 94 b7 bb ff d7 40 3d 4a 5b de 3c
       -0.0123145 -0.0056023775 0.04708099 0.02714314
0000a0 df e9 54 3e a0 35 30 3d f3 53 e9 bd 58 bd e3 3d
       0.2079234 0.04301989 -0.11392965 0.11120099
0000b0 d2 6a be be 2f 6e db bd 29 a5 c1 3e d8 ce 3b 3e
       -0.37190872 -0.10714375 0.3782132 0.18340623
0000c0 c6 40 94 3d f9 be c3 bd 75 0a 71 3e a9 f6 42 3e
       0.07238917 -0.095579095 0.23539145 0.19039406
0000d0 5a b3 0a 3d 9a d4 77 3d 35 25 cf 3d f8 0a d4 3b
       0.03386245 0.060505487 0.101145186 0.006471034
0000e0 32 a6 d2 bd be 56 8b 3d 3b e8 dd bd 2e 4f 03 bd
       -0.102856055 0.06803654 -0.1083531 -0.032057934
0000f0 bc 8d 3a 3e c9 27 96 bc e7 0d e0 bd c4 11 d3 bd
       0.1821813 -0.018329518 -0.10940152 -0.10306123
000100 b0 ff 4a bd ca 02 1b 3e 63 c2 8f be 1a 2f 1e bd
       -0.04956025 0.15137783 -0.28077993 -0.03861914
000110 b9 ad 95 bd fc 20 d4 bd 9d 29 0a 3d 64 4e 54 be
       -0.073085256 -0.10357854 0.03373109 -0.20733029
000120 f9 90 f9 3d 94 7b 4b 3e 95 b4 f2 bd 6a ea 23 3e
       0.121858545 0.1987136 -0.118508495 0.1600739
000130 ae 1c 65 3e e1 7c 77 be 17 32 33 bd e0 95 41 bd
       0.22374222 -0.24168731 -0.04374894 -0.047262073
000140 75 c5 21 3d a2 e6 f9 bc 8a fe b9 bd 13 f1 7a bc
       0.03949495 -0.030505482 -0.090817526 -0.015316266
000150 ff 46 94 3b 48 f2 ae be 45 61 4d 3e 97 64 f0 bd
       0.004525065 -0.3416922 0.20056637 -0.11737936
000160 79 6d 9c be df 66 33 3e 86 09 61 3e a6 f8 e9 3e
       -0.3055227 0.17519711 0.21976289 0.45697516
000170 66 d4 da bd 42 6b 02 ba 2e c7 ff bc 44 20 2d 3e
       -0.10685043 -0.0004975089 -0.031222906 0.1690684
000180 b1 1c a3 bd 57 66 c3 bd 27 83 81 3e 84 ab 93 bd
       -0.07964457 -0.09541004 0.25295374 -0.072104484
000190 86 56 75 bd b5 b3 0a be 6d 14 71 be 88 e1 2a be
       -0.05989697 -0.13545115 -0.23542948 -0.16687596
0001a0 8b 92 0a 3e 82 1d 7e bd 59 21 1d be da 65 05 be
       0.13532464 -0.06203986 -0.15344752 -0.13027135
0001b0 0f c1 c6 3c b1 ef eb bb 01 bd 55 3d 97 72 8a bd
       0.02426198 -0.0072002043 0.0521822 -0.067601375
0001c0 75 aa 81 3e 51 f5 e1 bd 4e 90 6d bd 53 51 5d 3d
       0.2532536 -0.110331185 -0.057998948 0.054032635
0001d0 4b 15 ad 3d 8d 33 27 be 3e ee 6d bc 94 ba 06 be
       0.08451327 -0.16328259 -0.014522133 -0.13157111
0001e0 89 ef 8f 3e 9b e4 19 3e 6d d6 41 3e 28 95 9f 3d
       0.28112438 0.15028612 0.18929453 0.07792121
0001f0 6d 0f fb 3d a3 b4 19 be 8b b6 42 bc 21 a5 8a 3d
       0.122588016 -0.15010314 -0.011884342 0.06769777
000200 90 24 e2 bd 11 ef 32 3e 5b 79 1c 3e ba 73 a6 3d
       -0.1104213 0.17474009 0.15280668 0.08127542
000210 e9 28 d0 3d c5 5f 6c bc c3 46 c3 3e e4 73 38 3e
       0.10164053 -0.01442713 0.38139924 0.18012959
000220 80 04 d5 3b bb a3 68 3d 43 89 a5 3d ca 33 00 be
       0.0065007806 0.05679677 0.08082821 -0.12519756
000230 21 64 13 3e 8f 54 bc 3d 11 3d f9 3c dd 7e e5 3d
       0.14393665 0.09195816 0.030424627 0.11205838
000240 7e e1 3e be 9d dc c5 bc b7 9d c6 bd c1 6e 47 3e
       -0.18640706 -0.024153048 -0.096980505 0.19475843
000250 8f 3b 46 3e 7c 50 bf bb b0 d0 df 3c 5a e1 79 bc
       0.19358657 -0.005838452 0.02732119 -0.015251482
000260 6e 4a c5 bd 93 aa d5 bd 19 89 2f bd fe 20 8c 3d
       -0.09633337 -0.10432925 -0.042855356 0.0684223
000270 2e a2 a9 bd f5 35 11 bd d4 c6 59 3d f7 78 e1 bd
       -0.082828864 -0.035451848 0.053168133 -0.110094
000280 fe ac be bd c8 86 2b 3c 65 83 cb bb 0e b4 81 be
       -0.093103394 0.010469146 -0.006210732 -0.25332683
000290 e7 36 2b 3d 91 6c 1c 3e 90 a3 b0 3d d9 12 21 3e
       0.041800406 0.1527579 0.08624947 0.15729846
0002a0 a6 72 35 3c 93 44 21 3e ad 51 c2 3c 4e 30 00 be
       0.011074698 0.15748815 0.023720587 -0.12518427
0002b0 12 a5 59 bd a5 a1 44 3d 21 a7 1e be c7 3a d6 be
       -0.05313594 0.04800572 -0.15493442 -0.4184172
0002c0 5c 65 79 bb 2b f8 0c be da 94 de 3d 9a c5 c1 3c
       -0.00380548 -0.13766544 0.10868235 0.023653794
0002d0 ba 73 26 bd 8a ef cd 3d 91 3d 37 bb 0f 04 47 3e
       -0.04063771 0.10055454 -0.002796028 0.19435142
0002e0 47 3d d8 bd 8b e1 cb bd f0 fc 83 3d 03 b2 97 3d
       -0.10558563 -0.09955128 0.064447284 0.07407
0002f0 76 7c 87 3c 73 34 89 bd 3b 71 28 be 4e 50 02 3d
       0.01653884 -0.06699457 -0.16449444 0.031814866
000300 38 31 80 3e 18 67 b3 bd fb 67 ea bc 5b eb c2 bd
       0.2503755 -0.08759898 -0.028614035 -0.09517547
000310 83 ad 0a be ad 31 52 be 69 f6 0b 3e 4d 7e 99 3d
       -0.13542752 -0.20526762 0.13668217 0.07494793
000320 a5 e7 e7 3b 19 00 bc bc 6e c2 0d 3e 8d 76 37 bd
       0.0070771747 -0.022949265 0.138437 -0.044790793
000330 56 ff eb be 53 c8 77 3e 29 11 2d 3e fa 35 14 38
       -0.46093243 0.24197511 0.16901077 3.533622e-05
000340 de 30 19 3d b5 5b 5d 3c f1 1e cc 3d 47 70 91 3d
       0.03740012 0.013510634 0.09966839 0.07101493
000350 73 8b ab bd 16 58 e4 3c 30 a2 18 bc 4e 4a 48 be
       -0.08376207 0.027874034 -0.009316012 -0.19559595
000360 3f 5a cb bd 95 6c d9 3d d8 42 66 3e 5d 46 94 bd
       -0.099293225 0.106164135 0.22486436 -0.07239983
000370 cb 58 03 3e 7c 64 f1 3d 43 c3 dc bc 54 47 38 bd
       0.1282684 0.11786744 -0.026948577 -0.0449899
000380 04 46 39 be 42 72 35 bd 45 59 34 be 24 98 0b bd
       -0.18093115 -0.044298418 -0.17612179 -0.03408064
000390 62 8b 21 be 87 8b 11 3d 6d b9 cd 3d 67 77 eb 3d
       -0.15775827 0.035533454 0.10045133 0.114973836
0003a0 a4 30 bd 3e 42 42 98 be 63 78 c4 bd 46 26 4a 3d
       0.36951172 -0.2973805 -0.095932744 0.049352907
0003b0 8d 0c 1b be 3c 60 11 3e e4 8b 05 3d e5 2a 38 3e
       -0.15141506 0.14196867 0.032604113 0.17985113
0003c0 73 83 95 3e 85 b0 8b bd 62 56 30 3d c7 84 89 bd
       0.2920185 -0.06820778 0.04305113 -0.067147784
0003d0 fd b2 38 be 84 53 15 3e 85 df 17 bd e4 3f b9 3d
       -0.18037029 0.1458264 -0.0370784 0.09045389
0003e0 d7 05 03 3e 60 a7 43 be ea df ba 3b 60 f8 60 bc
       0.12795196 -0.19106817 0.005702962 -0.013731092
0003f0 e4 ad 87 bc 1f 16 32 bb a1 08 3c 3e 44 71 43 3e
       -0.01656241 -0.002717383 0.18362667 0.19086176

attention_model.attn.in_proj_bias f4 [384]
000000 a2 21 a2 3c 55 8d 3d bd 21 39 80 3e d7 d8 2a 3c
       0.019791428 -0.046277363 0.25043586 0.010427675
000010 79 c3 46 bd 1f a7 49 be 82 70 e0 be dc 43 24 3e
       -0.04852626 -0.19692658 -0.43835837 0.16041511
000020 71 ad 29 bd ce af 70 3e b2 d6 fb bd d2 be 23 ba
       -0.041425172 0.23504564 -0.12296809 -0.0006246391
000030 28 22 fb bc 62 7c c5 be ca 16 c5 3d 6d ae 49 3d
       -0.030655935 -0.3857146 0.09623487 0.04923861
000040 6d 2e 86 3d c0 2a 24 bd 18 35 c4 3c ab b5 16 be
       0.06551824 -0.040079832 0.023951098 -0.14717738
000050 cb 6c e9 bc a2 2a 37 bd 9f 07 81 3d 17 72 ab 3d
       -0.02849426 -0.044718392 0.06300282 0.0837137
000060 3b fe a7 3c be 42 b0 bd 5f 67 15 bd df ed a5 3d
       0.020506969 -0.0860648 -0.036475535 0.08102011
000070 94 8b 15 3e ba 75 93 3e f3 f4 2f bc 73 f5 f2 bd
       0.14604026 0.28800756 -0.010739553 -0.11863222
000080 92 77 6b bd 45 a5 c7 3c 18 04 09 bd 91 cb 86 bd
       -0.057487078 0.024370799 -0.03345117 -0.06581796
000090 5a 89 dd bc fd 52 9a 3d 10 39 4f bc 0f 27 0a bd
       -0.027043033 0.0753536 -0.012647882 -0.033728655
0000a0 b7 bd 9d 3d 52 c1 a3 bd b4 eb a2 3c c7 33 c3 be
       0.07702201 -0.07995857 0.019887783 -0.3812544
0000b0 ee df 6b bd e6 85 18 be 72 ae 35 3d ac 7a e0 3c
       -0.057586603 -0.14894828 0.044355817 0.027402245
0000c0 69 78 66 3c 7a d6 d0 bd 49 aa f2 bc 80 ed cc 3e
       0.014066794 -0.10197158 -0.029622214 0.40024948
0000d0 ca df cc be cc bf 73 3b 43 b3 62 3d 6d 60 59 3d
       -0.40014488 0.0037193177 0.05534674 0.053070474
0000e0 72 0d 17 bd 3b bb ec be e5 1c 81 3d 19 60 39 3e
       -0.036878057 -0.46236596 0.06304339 0.18103065
0000f0 e0 72 4b bd f3 d6 eb 3d 84 34 07 3d 7a 6c 34 3c
       -0.0496701 0.11515608 0.033009067 0.011012191
000100 17 d4 85 3d d9 a4 28 3e 68 74 c9 be 78 08 14 3e
       0.065345936 0.16469134 -0.39346623 0.14456356
000110 21 a6 0e be 68 40 99 3d 8e f4 d1 ba 73 e8 96 3e
       -0.1393056 0.07482988 -0.0016018318 0.2947422
000120 b7 f0 20 3c b8 38 3d 3d fd cf 01 3c 7b d2 a9 be
       0.009823016 0.04619667 0.007923123 -0.33168396
000130 3b 89 8a 3d 71 5a 2b 3f 20 f7 c8 bd c2 3e 54 3d
       0.06764456 0.6693488 -0.0981276 0.051817663
000140 cc 1c a8 3c aa ab 21 be 83 3c 6f 3c 6b bf 44 bd
       0.020521544 -0.15788141 0.014601829 -0.048034113
000150 ab e9 e6 3d 2d 08 87 bd 0f 5a c1 3d 59 29 81 3e
       0.112750374 -0.06593356 0.094410054 0.25226858
000160 fe 42 ce 3d 0b c3 43 bd f2 0f 28 3e d1 8c fe 3d
       0.100713715 -0.04779343 0.16412333 0.12429202
000170 a6 19 a2 be 12 be 07 3e b2 f8 d0 3e 90 42 a6 3d
       -0.31660193 0.132561 0.4081474 0.081181645
000180 55 b8 eb 3e d3 2f 80 3d d9 c3 34 3d 43 58 02 38
       0.46039072 0.06259122 0.044132087 3.1076615e-05
000190 28 2a 83 be 61 5b 80 3d d9 a0 1c 3e 52 76 e1 3d
       -0.256181 0.06267429 0.15295734 0.11008896
0001a0 89 3b 68 3d bf 32 e4 bd 42 4d 86 bc fb c2 5c 3d
       0.056697402 -0.111424915 -0.016394261 0.053896885
0001b0 7f 4c cf 3c 0b 79 9d bd 90 b2 1d be c3 38 80 3b
       0.02530503 -0.07689103 -0.15400147 0.0039130165
0001c0 73 f0 a5 3e 92 b2 0f be b2 b1 c1 be df 18 b5 3e
       0.3241001 -0.14032963 -0.37830883 0.35370538
0001d0 de 42 0c 3e 7d 90 87 3d 36 ab 1a 3e b0 51 8a 3e
       0.13697383 0.06619356 0.15104374 0.27015448
0001e0 d1 61 a0 3c 25 cb e5 3e 1c 66 53 be b7 55 fb be
       0.019577892 0.4488155 -0.2064442 -0.49088833
0001f0 78 dc 4f be b6 9d 5d 3b b7 0c c2 bc 63 08 ed 3d
       -0.20298946 0.0033815927 -0.023687704 0.11573865
000200 0f 87 34 be 37 04 8f 3e 92 30 21 be 95 c6 59 3e
       -0.17629646 0.27932903 -0.15741184 0.2126716
000210 6b 8f a8 be 88 42 47 3e 21 cd 32 be 65 98 64 3e
       -0.3292192 0.19458973 -0.17461063 0.22323759
000220 99 2b 25 be 6b 47 be bc d3 1a 7f be 1f 83 b6 3e
       -0.16129912 -0.023227414 -0.24912576 0.35646912
000230 d1 ba e7 be 04 ff ed 3d af e6 72 be 62 cc 3c 3d
       -0.45259717 0.11620906 -0.23720811 0.046093352
000240 f6 09 2b 3e 7d b9 7c 3d 04 ac 0f 3e 36 2b 00 be
       0.16703019 0.061700333 0.14030463 -0.12516484
000250 38 37 94 3e 07 d7 a5 3d 75 90 b9 3d 21 9e 68 3e
       0.2894838 0.08097654 0.09060756 0.22716571
000260 66 a0 7e bd 2d f8 3e 3c 17 19 f2 3d 10 70 0e bf
       -0.062164687 0.011655849 0.11821192 -0.55639744
000270 16 56 6b bf 1b 23 ae 3a 22 88 ba bd 1f 58 d1 3d
       -0.9192823 0.0013285609 -0.091079965 0.10221886
000280 c4 08 3a be fe 9e c8 bd 67 f3 1a be cf 17 3f 3e
       -0.18167406 -0.0979595 -0.15131913 0.18661426
000290 26 9c 74 bd 13 2b 10 3e 4e cb a9 3e 94 36 3a bd
       -0.059719227 0.14078932 0.33162922 -0.045462206
0002a0 0d f8 38 be 14 56 07 3e 21 bd 23 3e d4 e5 8f be
       -0.18063374 0.1321643 0.15990116 -0.28105032
0002b0 45 05 63 3e f8 6c 16 be ea f8 c2 bd 0a 03 35 be
       0.22169979 -0.14690006 -0.09520133 -0.1767694
0002c0 0a a3 12 3d 0b e3 98 3e 98 cc ab 3c b8 b5 78 be
       0.035800017 0.2986072 0.020971581 -0.2428807
0002d0 0f 7d 36 be 72 df 95 3d c5 ee 46 bc 84 f1 5e be
       -0.17821144 0.073180094 -0.012141888 -0.21771818
0002e0 bb b4 7f 3e 6f 58 3f bd 08 d0 05 bf b3 54 49 be
       0.24971287 -0.046715196 -0.52270555 -0.19661216
0002f0 c5 3b d3 3d 3d 79 78 bc 64 1c ea be ba d2 b5 3d
       0.103141345 -0.015165624 -0.45724785 0.088780835
000300 69 cc f5 3d af cc 9f bc 0d da 2d be fa 05 90 bc
       0.12001879 -0.01950678 -0.16977711 -0.017580975
000310 8d e1 80 bd 50 a4 29 bd da c2 1b ba 86 68 7b be
       -0.062930204 -0.041416466 -0.0005941816 -0.24551591
000320 29 26 f0 bd b1 9f 70 3e 0a 5b a0 3e 34 e8 b2 be
       -0.117260285 0.23498417 0.31319457 -0.34942782
000330 3e dc 3a be c6 88 13 be ca 35 34 be 34 8b c1 3a
       -0.18248078 -0.14407644 -0.17598644 0.0014766217
000340 21 cf d5 bc af 76 9b 3e 27 9d 1b bd 21 7b 7a bd
       -0.026099743 0.30363986 -0.03799167 -0.06115258
000350 11 b2 07 3e fa f5 b9 bd 7f d8 0a be ab a0 af 3d
       0.1325152 -0.090801194 -0.13559149 0.08575567
000360 56 64 04 bd 10 58 5e be 43 27 ab 3d e2 f0 aa bc
       -0.03232225 -0.2171328 0.08357098 -0.020866815
000370 2d e3 60 3e 75 3a ad 3d d5 45 1c 3e 1f 07 c8 bc
       0.2196166 0.084584154 0.15261014 -0.024417458
000380 81 4c 2f be f6 94 8f 3d 3f 46 e9 3b 0f 5a 1d 3f
       -0.17119028 0.07010834 0.0071189697 0.61465544
000390 fa 16 cb 3d 87 62 c8 be d0 7d d5 3c 9a 05 ad bc
       0.09916492 -0.3913767 0.026060969 -0.021120835
0003a0 ce 55 c0 3d d8 2f 20 3e b3 6b 11 be 25 36 21 be
       0.09391366 0.15643251 -0.1420124 -0.15743311
0003b0 9f 25 8f 3e 2d d9 28 be 64 a2 b6 be 54 61 29 3d
       0.2795839 -0.16489096 -0.3567077 0.041352585
0003c0 f1 95 40 3e 2b 94 78 3e 95 22 89 3d 59 83 e3 bd
       0.18807198 0.24275272 0.06696049 -0.11109037
0003d0 7e fe 98 3d a5 6a da bc 0d d6 3e be 09 03 07 3e
       0.074704155 -0.02666218 -0.18636341 0.13184752
0003e0 a4 36 15 be 08 d7 99 3d a7 13 d8 bd 15 24 48 3d
       -0.14571625 0.07511717 -0.105506234 0.048862536
0003f0 14 22 be bc 5f c0 17 3e fb ba 56 bc 76 10 37 bb
       -0.02320961 0.14819477 -0.013106103 -0.0027933395

attention_model.attn.out_proj.weight f4 [128, 128]
000000 41 db 1a bd d9 b7 bc bc fe 7e 2f 3d a8 20 6a bc
       -0.037806753 -0.023036884 0.04284572 -0.014290012
000010 89 31 6b bc a3 ed ae 3c 9d 37 88 3c 41 5f a9 bc
       -0.014355072 0.021353548 0.016628081 -0.020675303
000020 bc 97 35 3c 3f 2b b2 3c 70 00 c6 3c c7 8c d2 3c
       0.01108354 0.021749137 0.02417013 0.025701893
000030 3b de dc 3c e1 96 f8 3c de 37 40 3c ea f0 d9 bc
       0.026961436 0.030345382 0.01173207 -0.026604135
000040 4d 31 9e 3c e8 2c 8f 3c 4e 44 8e bc 2c 48 b2 bc
       0.019310618 0.017477468 -0.017366555 -0.02176293
000050 bd 6f be 3c 5e c0 dc 3c 87 21 36 bd 9f 9c 94 3c
       0.02324664 0.026947197 -0.044465568 0.018141089
000060 75 06 c8 bc 65 d5 b8 3c 2f 97 b6 3c 33 ed bb 3c
       -0.024417141 0.022562692 0.022288887 0.022940254
000070 0d 0b d9 3c 8c 06 99 3c 33 00 61 3c 2b 5d aa 3c
       0.026494527 0.01867988 0.013732958 0.02079638
000080 0e 1e 81 bc 2b 83 82 bd f2 6c 18 3d 24 1f e8 bb
       -0.015761402 -0.063726746 0.037213273 -0.0070837904
000090 b2 28 27 3c 95 1e 8c 3a fa 39 a6 3b 0f ea bc bb
       0.010202574 0.0010690266 0.0050728293 -0.0057652066
0000a0 7d 36 a6 bb b0 25 98 3b cb 3e ae bb 45 34 d5 3b
       -0.0050724135 0.0046431646 -0.005317544 0.006506475
0000b0 d3 2a 88 bc 34 23 9c bc 35 63 8e bd e1 55 41 3d
       -0.016621983 -0.019059755 -0.06952516 0.04720104
0000c0 5e 5c 15 bc a1 74 22 bd f9 e0 95 bb e5 52 10 bd
       -0.00911626 -0.039662007 -0.004573938 -0.035235304
0000d0 4b fc b7 bb 1c 50 e3 bb 98 75 60 bc fb 15 a7 bc
       -0.0056147925 -0.00693704 -0.013699912 -0.020396223
0000e0 92 f4 8f 3b 07 19 0a 3d 36 09 fb bc 22 70 21 bd
       0.0043931687 0.033715274 -0.03064404 -0.03941358
0000f0 84 35 f0 3b 87 40 70 bd c5 ca 8c 3c 31 0b 8c bd
       0.0073305983 -0.058655288 0.017186532 -0.06838072
000100 2f 2b 90 bd df 14 3e bb 12 cc e3 bc ee 03 4b 3d
       -0.070394866 -0.002900414 -0.02780727 0.049564295
000110 ed 87 ff 3c 94 9b 35 bb 6d 81 b3 bd 5d 03 4b 3d
       0.031192744 -0.002771114 -0.087649204 0.049563754
000120 69 bd 39 bd fb 42 40 bb 03 8a db bb 39 24 e0 bc
       -0.04534665 -0.0029336798 -0.006699802 -0.027361022
000130 8e c4 cb 3c a5 ae 86 bc 1b 66 af 3b c2 45 9f bd
       0.024873998 -0.016440699 0.005352748 -0.07776977
000140 22 37 c7 bd 50 22 b4 3c 07 68 8b 3c 10 13 6a bd
       -0.097273126 0.021989018 0.017017378 -0.057147086
000150 ab 89 b8 bc 4d 9f 77 bd 2c fa fd 3d e2 d7 ce 3d
       -0.022526583 -0.060454655 0.12401232 0.1009977
000160 75 fe 90 3b 6a 0a 86 bc 28 57 4b 3d ba 76 69 3b
       0.004424865 -0.016362388 0.049643666 0.0035623745
000170 2d 42 ea 3d 3d 37 68 bd 59 8f 65 3d 4e 79 10 bc
       0.11438403 -0.056693304 0.05604491 -0.008817984
000180 5f 21 1e 3d b6 85 a8 bb a0 8b 13 3d 79 84 77 3d
       0.038606044 -0.0051428927 0.03602183 0.06042907
000190 8e 43 88 ba 73 2e ed bc 48 86 c0 3d c3 f5 2c bc
       -0.001039611 -0.028952813 0.09400612 -0.010556641
0001a0 d0 3a ef bb 24 b3 44 3b 7e 44 59 bc 15 a4 3c bd
       -0.007300712 0.0030014003 -0.013260959 -0.04605492
0001b0 e7 44 9a 3d 37 7b c9 bc a7 f5 60 3c 12 6f 66 bd
       0.07532673 -0.024594886 0.013730443 -0.05625827
0001c0 c1 40 ac 3d 7c 3b ad bc 15 2b 4e 3d 22 9e 43 bc
       0.08410788 -0.021146528 0.050334055 -0.011939557
0001d0 e3 9e 1d bd a4 ef f6 3c e5 1e 55 bd 94 6b 4b bc
       -0.038481604 0.030143566 -0.052031416 -0.012415785
0001e0 a0 46 9e b9 41 e1 49 3d df 34 3c bd 85 eb 18 bc
       -0.00030188728 0.049287084 -0.04594886 -0.009333496
0001f0 a1 8f ee 3c 72 a7 40 3a 2b d2 28 3c b1 9a 24 3d
       0.029121222 0.000734917 0.010304014 0.040186588
000200 c6 77 1e be 78 dc 98 bc 52 9a a7 3c 8c 70 1d bc
       -0.15475377 -0.018659815 0.020459328 -0.009609353
000210 41 4d f9 bb fa 07 6e 3c 3a 3d 11 3c 19 0c 7f bc
       -0.0076080863 0.014528269 0.008864695 -0.015566849
000220 00 29 fa bd cb 85 5d 3c 08 69 72 3c c6 b5 9a 3c
       -0.122148514 0.013520668 0.014795549 0.018885504
000230 4f 77 b3 3c 3a 80 66 bd 6b 62 99 bd 46 6c 87 bc
       0.021907477 -0.05627463 -0.07489475 -0.016531121
000240 19 03 4a 3c f1 fc 8a 3d 33 c8 25 bc 95 00 36 bc
       0.01232984 0.06786526 -0.010118532 -0.011108537
000250 f5 fa 8d 3c 86 c6 60 3c 9b 72 21 3d 36 6c 10 3c
       0.01733158 0.013719207 0.039415937 0.008814862
000260 e9 d2 28 bc 2f 6d 82 3c 92 4d 7d 3c e0 59 41 3c
       -0.010304191 0.015921203 0.015460389 0.011801213
000270 b5 e9 67 3c ea cc 58 3c ea 36 f5 3b 0e 34 21 3c
       0.014154841 0.013232449 0.007483353 0.009839071
000280 9f b6 a3 bc e1 fa 9f bc a2 7c 08 bc d5 bb 62 3d
       -0.019984541 -0.019528808 -0.008330496 0.05535491
000290 3a ea bc 3c 2d f4 35 3c d7 8c 61 3c f5 b5 7b bc
       0.023060907 0.011105579 0.013766489 -0.015363206
0002a0 a5 d1 8e bc 9e e3 54 3c bc 81 9f 3d 1b bb b4 3c
       -0.01743395 0.012993721 0.07788417 0.022061875
0002b0 ac b2 04 3d a3 ca d7 bc cd fa 4f 3d bf be 00 3d
       0.032396957 -0.026341742 0.05077629 0.03143191
0002c0 05 f2 92 bc 0a d6 fc bc 5b 80 8f bc d2 0e 03 be
       -0.01793767 -0.03086378 -0.01751726 -0.12798622
0002d0 fe af e7 3c 94 05 b2 bc 68 7a ea bc 19 0c 27 3d
       0.028282162 -0.021731175 -0.028622821 0.04078302
0002e0 1f ac 7a 3c e0 77 3a bc 2b 08 ad 3d 9b b8 8c 3a
       0.015299826 -0.0113811195 0.084488235 0.0010736169
0002f0 dd bd 8b 3c d2 d3 df 3d 1e 1d 52 3d e8 46 a6 3c
       0.017058307 0.109290734 0.0512973 0.020297483
000300 36 d9 c5 bd 8e 6e 3d 3e fa 60 8f 3d 99 d7 5e 3c
       -0.0966057 0.18499205 0.07000919 0.013601207
000310 8a 6b fa bc 69 f1 8d bc 70 20 df 3c ff fe a4 3b
       -0.030568857 -0.017327027 0.027237147 0.0050352807
000320 12 bb 4c 3d 1a f8 ac bc 72 8e a0 bc bc aa 13 bd
       0.04998309 -0.021114398 -0.019599173 -0.036051497
000330 e6 73 13 bd 14 b4 a7 3d 48 fb b0 3c 69 25 2d 3c
       -0.0359992 0.08188644 0.021604195 0.010568001
000340 1d 77 80 bd 1e c9 b8 bc 00 09 9e bd a6 9a fa 3c
       -0.06272719 -0.022556838 -0.0771656 0.03059132
000350 22 55 5b bd 0a 30 5e 3c 75 85 05 bd dd 25 e4 bd
       -0.053547986 0.013561258 -0.032597978 -0.11140034
000360 ab da 98 3c 2e 08 8d bc 79 0a d0 3d fd 6e ed bd
       0.018658957 -0.017215814 0.101582475 -0.11593435
000370 4f f4 4b 3d 33 5e 6d bc f5 e9 76 3d e1 f2 70 bd
       0.049793538 -0.014487791 0.060281713 -0.058825377
000380 8c d4 74 bd 33 67 e9 bc 5e 0f ba bc 50 d8 82 bc
       -0.059773013 -0.028491592 -0.022712406 -0.015972286
000390 f6 5c 85 3d 87 4f 4b bb ed 17 b6 3a 5b 30 29 3c
       0.065118715 -0.0031022744 0.0013892628 0.01032647
0003a0 fb 70 71 3c 8c 51 88 bd 5b 25 57 3c 9f 6a d4 bc
       0.014736409 -0.06656179 0.013131465 -0.025929747
0003b0 ab b4 b0 3c 52 0a 49 bd bb c9 8b bd a9 c4 ad 3c
       0.021570524 -0.049082108 -0.068255864 0.021211939
0003c0 44 18 6c 3d 21 89 71 bc 68 9d 61 bd 2f f0 9a 3d
       0.05764033 -0.014742167 -0.055081755 0.07565343
0003d0 a8 d3 67 bd 93 03 c3 3d 21 18 8a 3c 4a c7 69 3d
       -0.056598336 0.09522166 0.016857209 0.057074822
0003e0 3f e0 f7 3c eb 22 d2 3c 47 20 14 3d d0 56 32 3c
       0.030258296 0.025651416 0.036163595 0.0108849555
0003f0 a1 36 2f 3d 33 ee 0b bd f3 c1 2c bd 4f fd 7b 3d
       0.042776708 -0.03416271 -0.042177152 0.06152087

attention_model.attn.out_proj.bias f4 [128]
000000 a0 94 ec 3b 40 4b 0a 3c 98 10 03 bc 4c dc 95 3c
       0.007219866 0.008440793 -0.007999562 0.018293522
000010 96 2a 84 bc 86 70 bf 3c f7 33 9f bc 73 a9 e1 3b
       -0.016133588 0.023369085 -0.019433958 0.006886655
000020 cc 32 0b bd 86 c7 44 bd 60 a3 da bb b3 16 a7 3b
       -0.03398399 -0.048041843 -0.006672308 0.0050991415
000030 84 e0 22 bc f4 10 6b bc 43 c1 0c bc 89 3f 8c bb
       -0.009941224 -0.014347304 -0.008590999 -0.004280035
000040 df 66 de 3b 15 0f bb 3c cd e9 b0 3c f0 c0 e2 3b
       0.0067871655 0.02283434 0.02159586 0.0069199726
000050 ea a1 60 3c 28 70 3a bc 34 3a 84 bb b4 a5 20 3c
       0.013710478 -0.011379279 -0.0040352587 0.009805132
000060 ac d7 0a 3c f8 b7 8e 3c 58 47 b6 3b 50 32 38 3b
       0.008474272 0.017421708 0.005562704 0.002810616
000070 69 af b7 bb 04 72 59 bc 32 ec 5b bc 46 2f e7 ba
       -0.0056056273 -0.013271812 -0.013423013 -0.001763799
000080 49 34 34 3c a5 b0 12 bd 69 1b 9d 3c 9b 19 b3 3c
       0.010998794 -0.035812993 0.01917811 0.021862796
000090 db e7 dc 3a d1 06 34 bc 1c 98 16 bc 91 cc 8a 3b
       0.0016853766 -0.010987953 -0.009191539 0.004235812
0000a0 1d 1b 68 bb 75 54 41 3a 28 7e 4f 3d 0b 89 19 bb
       -0.0035416551 0.0007374951 0.05065742 -0.0023427631
0000b0 85 98 cc bb d0 3d b7 3c 3f af 94 3c d7 e4 a1 bc
       -0.0062437677 0.022368342 0.01814997 -0.01976244
0000c0 ed bc 98 bc 74 49 52 bc eb e9 c4 bb 1a 9c 34 3c
       -0.018644774 -0.012834895 -0.0060093305 0.011023546
0000d0 bf 3d d1 3b 3c dd b9 b8 7c 2b a5 3c bd f7 cb 3b
       0.0063855345 -8.8626955e-05 0.020162337 0.006224601
0000e0 71 78 57 3a c7 42 3a 3c 9c cc 77 3c b8 51 cb 3a
       0.0008219546 0.01136846 0.015124466 0.0015512025
0000f0 d6 f2 ea bc 87 67 8a 3c cc 59 89 bc 40 a8 10 3c
       -0.028680246 0.016895069 -0.016766451 0.008829176
000100 ed 87 fc 3a 92 3d e8 bb 40 49 eb bb e8 16 ed 3a
       0.0019266583 -0.007087418 -0.007180363 0.0018088492
000110 5b a9 50 3d d9 67 18 3b c7 95 f5 39 3c f3 f2 3b
       0.05094276 0.0023255257 0.00046841634 0.0074142497
000120 d6 88 6b bc cd e5 ce 3b 12 e1 a0 bc f3 7f 17 3b
       -0.014375886 0.0063140155 -0.019638572 0.0023117035
000130 8a 34 6f b9 53 cf 84 bb eb f2 9f 3b 5f 60 fe 3c
       -0.00022812388 -0.0040530353 0.004881253 0.031051813
000140 45 77 00 3d c7 f1 86 bc 7f 14 82 bb 17 1a c8 ba
       0.031363744 -0.01647271 -0.0039697285 -0.0015266564
000150 42 89 d0 bc 47 45 d1 3c 95 ce 51 bd 37 10 68 bc
       -0.025456075 0.02554573 -0.051222403 -0.014164022
000160 8a 55 d2 3b 14 ea 8e bc 47 55 13 3c 1c 7e 16 bc
       0.0064188885 -0.017445602 0.0089925 -0.00918534
000170 e7 4e 05 3c ee 19 b0 3b 3d a4 57 bc d7 f7 e6 bc
       0.008136488 0.005374185 -0.013161716 -0.028194351
000180 f1 91 36 3c 66 be d3 3b a0 2b 60 bc 29 1b 94 3b
       0.011143194 0.0064619062 -0.013682276 0.0045198393
000190 ab 6d 1c 3b 4f f7 28 3c ed 68 ae ba 24 74 66 3c
       0.0023869078 0.010312869 -0.0013306417 0.014065776
0001a0 a7 cc df bc f3 1d d0 ba 91 a2 72 3c 03 f1 bd bb
       -0.027319266 -0.0015878066 0.014809267 -0.005796553
0001b0 e3 e5 d8 ba 40 99 3b 3c 6f 2e 0c ba ec c1 76 3c
       -0.0016548004 0.011450112 -0.00053474953 0.015060883
0001c0 6e 49 51 bc d4 82 17 3c 3a 17 80 bc 85 1c 6b bc
       -0.012773855 0.0092475 -0.015636075 -0.014350061
0001d0 40 3d 50 3b 9c 09 0f 3c 4d 5c 97 3b 18 39 59 bd
       0.003177479 0.008730318 0.0046191574 -0.053032964
0001e0 6a 8f 78 bc 06 08 11 3d 5d 5e 15 3c b6 74 25 bc
       -0.015170911 0.035408042 0.009116736 -0.010098627
0001f0 0e d2 5b bc 07 bc 7c bb f8 ae a4 bb 3c a7 30 3b
       -0.01341678 -0.0038564221 -0.0050257407 0.0026955148

attention_model.fc.weight f4 [1, 128]
000000 2f 6e 22 3c 4a 4e 8a 3b ee 22 6c 3b 2b ad 06 3c
       0.009913965 0.0042207586 0.0036031562 0.008219997
000010 a2 f8 bd ba 33 53 06 3c be 81 c4 3b 5c 5d 85 3a
       -0.0014493654 0.008198547 0.005996912 0.0010174918
000020 7b 8f 8e 3e bc b1 a0 3e 76 a2 d1 3b 12 58 d0 3b
       0.27843842 0.313856 0.0063975407 0.006358155
000030 de ea 4b bb bb 22 55 3b ac eb 63 bb 1b 1f b2 b9
       -0.0031115334 0.0032521922 -0.0034777923 -0.0003397398
000040 b2 e2 5e ba 91 e2 a6 3b cf 56 6e 3b 5b 3b 91 bb
       -0.0008502408 0.005092927 0.003636766 -0.0044321246
000050 b6 38 00 3c d9 d8 a2 3b b8 c6 0d bc 45 19 e7 ba
       0.007826021 0.004969698 -0.008653335 -0.0017631432
000060 9f 02 3f bb fc 5c e5 3b 8c 17 9d 3b 77 9a 22 3b
       -0.002914585 0.00699961 0.004794067 0.0024811307
000070 dd 92 33 bc 19 68 5c bb 48 be 80 bb c6 94 8f 3a
       -0.010960308 -0.0033631383 -0.0039289333 0.0010954372
000080 c9 79 c9 3b b1 7a 90 3e 43 98 38 3b dc a6 df 39
       0.006148551 0.28218606 0.0028166927 0.00042658194
000090 65 fe 50 be a6 d1 b6 3b 0d 43 70 bb 77 73 21 bb
       -0.20409544 0.0055791913 -0.003666106 -0.0024635473
0000a0 13 20 83 bb 7a 5b 00 3c 58 32 a4 be 98 51 b2 bb
       -0.0040016263 0.00783431 -0.3206966 -0.0054418556
0000b0 d9 2e 9b bb 67 d2 d6 3b 1e 90 5e 3b 95 37 0c bb
       -0.0047358093 0.0065558436 0.0033960412 -0.0021395434
0000c0 dc 32 d0 bb ab c1 fd bb 6a e0 4f 3a a4 b6 35 bb
       -0.006353719 -0.0077440343 0.00079298636 -0.002772727
0000d0 6f 7d d9 ba c3 04 90 3a 25 0e d2 3b 34 ef 26 ba
       -0.0016593168 0.0010987747 0.0064103776 -0.00063680415
0000e0 cb 6b b7 3b 3d 13 18 bc 16 0b 61 bb 9c 77 b5 3b
       0.0055975667 -0.0092819305 -0.0034338883 0.00553794
0000f0 28 de 87 3e 0e 83 e9 3a 18 1f 1c 3b 1c 44 26 bc
       0.2653668 0.0017815547 0.0023822244 -0.0101480745
000100 4f 9b 12 3b ac cf e0 b9 12 d1 ce 3a 90 2a 93 3b
       0.0022370403 -0.00042879337 0.001577886 0.004491158
000110 8d 3a a5 be 79 fe 4e 3b 3c 71 b0 3b d9 20 84 bb
       -0.32271233 0.0031584783 0.0053845923 -0.004032236
000120 4a 49 13 3b 9c c6 ca 3b 1b be 81 bb ac d1 80 3b
       0.0022474104 0.006188227 -0.00395943 0.003931245
000130 6f e3 03 bc b3 44 35 3a e6 30 00 3b 63 73 e3 3b
       -0.00804983 0.0006914839 0.0019560396 0.0069412454
000140 9c 29 94 3b 0a 65 8b bb 39 64 4c b6 21 13 15 3c
       0.004521562 -0.004253988 -3.0456706e-06 0.009098799
000150 dd 45 4a bb 14 dc 83 be b8 4e a5 3e 09 0d 1c bc
       -0.0030864396 -0.25753844 0.3228662 -0.009524592
000160 18 c9 0e bb a3 89 1c bc d7 ab 43 ba 1b 38 8a b9
       -0.0021787342 -0.0095542995 -0.0007464266 -0.00026363213
000170 fc aa 4a 3b da 23 d2 3b 70 90 47 ba 63 f9 86 3e
       0.0030924669 0.0064129652 -0.00076127704 0.26362142
000180 4a d2 a7 3b b2 64 15 3a e2 27 81 bb 0c 52 57 bb
       0.005121504 0.00056989037 -0.003941522 -0.00328553
000190 15 8a d8 39 e9 ad 0b 3b 1a 50 64 39 38 4f a5 3b
       0.0004130161 0.0021313375 0.00021773615 0.005044844
0001a0 ba e4 d0 bb b2 6b b8 bb b5 7a 17 39 a4 f8 50 bb
       -0.0063749226 -0.0056280727 0.00014446194 -0.0031886483
0001b0 53 e0 d0 bb ab 2a db bb aa 4b 45 bc f0 5a 23 3b
       -0.006374398 -0.006688436 -0.0120419655 0.002492603
0001c0 49 11 e9 ba 30 9f 29 3b 42 e9 03 3b c7 4c e5 ba
       -0.0017781641 0.0025882237 0.0020128046 -0.0017494195
0001d0 a2 a3 21 3c df 72 0f 3c 10 74 9a 3b eb 9e a7 3e
       0.009865673 0.008755415 0.0047135428 0.32738432
0001e0 ec fd 86 b9 10 6b 90 be 80 35 74 bb b8 19 b3 b9
       -0.00025747658 -0.28206682 -0.0037263334 -0.00034160702
0001f0 7c 10 86 bb ea 48 60 bc 0e a9 0a bc 93 86 c3 ba
       -0.0040913206 -0.013689259 -0.008463157 -0.0014917426
