Ablation Study/model E/best_model.pth (torch, 277860 bytes, 7 tensors)

predict.0.weight f4 [128, 148]
0	0x3d362725	0.044470925
1	0x3e17d681	0.1482792
2	0x3ba8712b	0.005140444
3	0x3d46a67a	0.04849861
4	0x3e88de87	0.26732275
5	0x3e678f31	0.22613217
6	0x3e3e4280	0.18580055
7	0xbdc7c5e9	-0.09754545
8	0x3d6ee7ac	0.05832641
9	0xbe241af4	-0.16025907
10	0xbe145c4d	-0.14488335
11	0x3df2385a	0.118271545
12	0x3d18bb3b	0.037287932
13	0xbca2a26f	-0.019852845
14	0x3d6669fb	0.056253415
15	0x3e74c38e	0.23902723
16	0x3d1e929f	0.038714048
17	0x3e4e880f	0.2016909
18	0x3e2f527f	0.17121314
19	0xbd3f01fc	-0.04663275
20	0xbebd0499	-0.3691757
21	0xbe00a9cc	-0.12564772
22	0x3f56951d	0.8382128
23	0x3df66c2d	0.12032352
24	0x3cafd9ec	0.021466218
25	0xbf01319a	-0.5046631
26	0x3ea9b5d5	0.3314654
27	0x3eaf01e7	0.3418114
28	0xbe988a8b	-0.297932
29	0x3e27605a	0.16345349
30	0xbe4d878c	-0.20071238
31	0xbe10f644	-0.14156443
32	0xbe26cf16	-0.16289935
33	0x3df10265	0.11768035
34	0x3e80cca2	0.25156122
35	0xbdf9a5d8	-0.12189835
36	0x3e1bf95a	0.15231839
37	0x3ea5e9ab	0.32404837
38	0x3ec11e18	0.37718272
39	0x3e69d9d1	0.22836997
40	0x3eca99f0	0.3957057
41	0xbe3ea69c	-0.18618244
42	0x3e449661	0.1919799
43	0xbf37b93b	-0.71767014
44	0x3da4e9b3	0.08052387
45	0xbcad7959	-0.021176027
46	0x3cb9ee62	0.022696678
47	0xbd19f0df	-0.03758323
48	0xbda7488c	-0.08168134
49	0x3e9bc1c3	0.30421266
50	0xbf1ab0c2	-0.6042596
51	0xbe295c3d	-0.16539092
52	0x3e5144c0	0.20436382
53	0xbd85cbba	-0.065329984
54	0x3e08ece8	0.13371623
55	0x3eb78d9c	0.35850227
56	0xbec2f751	-0.38079312
57	0xbd0633c8	-0.032764226
58	0xbd6879ce	-0.056756787
59	0xbe717292	-0.23578861
60	0x3d03ec64	0.03220786
61	0x3ecabe80	0.39598465
62	0x3f036c24	0.51336884
63	0x3d9b9821	0.07597376
64	0xbe34c9b5	-0.1765507
65	0x3ef964ba	0.4870966
66	0x3db5ee54	0.08883348
67	0x3ddc3525	0.10752324
68	0xbf162d8b	-0.58663243
69	0x3e750ced	0.23930712
70	0xbf46cf97	-0.77660507
71	0x3e14ec52	0.14543274
72	0x3d3ba3fe	0.045810692
73	0x3d8e98b5	0.0696272
74	0x3ecabf13	0.39598903
75	0x3ed52127	0.41626856
76	0x3db894a9	0.0901273
77	0xbd303bde	-0.043025844
78	0xbe182ce0	-0.14860868
79	0x3da99ede	0.08282255
80	0xbe436c9b	-0.19084398
81	0x3ed52c29	0.41635254
82	0x3d96de71	0.07366646
83	0xbe271156	-0.16315207
84	0x3e2c1e1a	0.16808358
85	0xbe65a1e7	-0.22425042
86	0xbe98059b	-0.29691777
87	0xbe78d58c	-0.24300212
88	0x3e9acaf0	0.30232954
89	0xbd2d5fe6	-0.042327784
90	0x3e926366	0.2859146
91	0x3decef74	0.115691096
92	0xbde237b1	-0.110457785
93	0x3e7a1c4c	0.24424857
94	0x3e152e01	0.1456833
95	0xbe7774cd	-0.2416565
96	0x3d6bcd74	0.057568982
97	0x3ee4c553	0.44681796
98	0x3f195dbc	0.5990865
99	0xbd934f3d	-0.07192848
100	0x3c271985	0.010198955
101	0xbeb1846e	-0.34671348
102	0xbbab52b3	-0.0052283644
103	0x3e1729e3	0.14762072
104	0x3d388810	0.045051634
105	0xbe2776fa	-0.1635398
106	0xbd844941	-0.064592846
107	0x3f147b33	0.5800049
108	0xbdc9a5d3	-0.098460816
109	0x3e85fe91	0.2617078
110	0x3e404590	0.18776536
111	0x3ef54879	0.47906855
112	0x3e5fd275	0.21857627
113	0x3a387bbf	0.00070374826
114	0x3d871198	0.065951526
115	0x3dedd7f7	0.11613458
116	0x3e320f96	0.17388758
117	0xbe3ae70d	-0.18252201
118	0x3d9979bb	0.07493921
119	0x3f008fee	0.5021962
120	0x3dc1f9bb	0.094714604
121	0x3ef8403c	0.48486507
122	0xbf06b3da	-0.5261818
123	0x3eda820b	0.4267734
124	0xbf096398	-0.53667593
125	0xbdc9242a	-0.09821351
126	0x3e1dd635	0.15413745
127	0x3eb8296d	0.35969105
128	0x3edfd687	0.4371836
129	0xbedff156	-0.43738812
130	0xbe8e081d	-0.27740565
131	0x3e3cb1dd	0.18427224
132	0xbb5ba476	-0.0033514774
133	0xbe8e014a	-0.27735358
134	0xbf63cb63	-0.8898222
135	0x3e8ffff1	0.28124955
136	0x3dcb712d	0.09933696
137	0xbe933d1d	-0.28757563
138	0x3f191fee	0.59814346
139	0x3f08956a	0.5335299
140	0x3f043483	0.51642627
141	0x3e5ff701	0.21871568
142	0xbe3c6468	-0.18397677
143	0x3cd4be6c	0.025969706
144	0x3e19bfcb	0.1501457
145	0x3ddd8b3f	0.10817575
146	0xbef3cbf7	-0.4761655
147	0x3e8ddb7c	0.27706516
148	0x3e44576d	0.19173975
149	0xbe32e732	-0.17471007
150	0x3e10306f	0.14080976
151	0x3dd192ab	0.10233053
152	0x3df1f971	0.11815155
153	0x3dc7a0f7	0.097474985
154	0xbc17ad60	-0.009257644
155	0x3de94341	0.11389781
156	0x3e1768ed	0.1478612
157	0x3d0b6581	0.03403235
158	0x3d974670	0.07386482
159	0x3d34a969	0.044106875
160	0x3da65cbd	0.08123157
161	0x3d1acc21	0.03779233
162	0x3dba5283	0.09097769
163	0xbc9f6237	-0.019456012
164	0x3e100528	0.14064467
165	0xbd6ae746	-0.057349466
166	0x3a5575fd	0.0008142887
167	0xbdc479da	-0.09593554
168	0x3d9513b4	0.07279149
169	0xbda2aad1	-0.07942737
170	0xbde11e69	-0.109921284
171	0x3f2eceb2	0.6828414
172	0x3f00c101	0.502945
173	0xbdb7c635	-0.08973352
174	0x3d8092ea	0.06278022
175	0xbdf9489e	-0.12172054
176	0xbe304ef4	-0.17217618
177	0x3e48220d	0.1954424
178	0x3e2bd923	0.1678205
179	0x3e1151f6	0.14191422
180	0x3e3f746c	0.18696755
181	0x3e9d5b06	0.30733508
182	0xbbd9ce1c	-0.0066468846
183	0xbdb499b3	-0.08818378
184	0xbec9a623	-0.39384565
185	0x3e8df444	0.27725422
186	0xbebff758	-0.37493396
187	0xbd136f74	-0.03599496
188	0x3cb273ca	0.021783728
189	0xbe668bd8	-0.22514284
190	0x3e621309	0.22077574
191	0xbd92342c	-0.07138857
192	0xbe1e28ca	-0.15445247
193	0xbd028275	-0.031862695
194	0xbe260939	-0.16214456
195	0x3e8b543d	0.27212706
196	0x3e8d2f57	0.2757518
197	0x3f08da80	0.53458405
198	0xbf63e94f	-0.89027876
199	0x3e9ff262	0.3123961
200	0x3f0e54b0	0.5559797
201	0x3dee1a85	0.11626152
202	0xbe1d5e5b	-0.15368025
203	0xbcec3301	-0.028832914
204	0xbe5788e8	-0.2104832
205	0x3dc0ff1b	0.094236575
206	0xbd5b1392	-0.05348546
207	0x3e54bbbc	0.2077474
208	0x3e925522	0.28580576
209	0x3e03791b	0.12839167
210	0xbc896ff3	-0.016777014
211	0xbe12ddca	-0.14342418
212	0x3e66d008	0.22540295
213	0xbeaba03d	-0.3352069
214	0x3e33ce01	0.17559053
215	0x3de41707	0.111372046
216	0x3eff39ca	0.49848777
217	0x3e97c3c7	0.29641554
218	0xbf0b0256	-0.5430044
219	0x3eb9abe4	0.36263955
220	0xbb04eb5c	-0.0020281887
221	0x3e7351ee	0.23761722
222	0x3e633390	0.22187638
223	0xbbc33aba	-0.0059579285
224	0xbe14e24b	-0.14539449
225	0x3e96454f	0.29349753
226	0xbde71686	-0.11283593
227	0x3ec35444	0.38150227
228	0x3efe019c	0.49610603
229	0x3ea0d4fe	0.314125
230	0x3f04e4b6	0.51911485
231	0x3e7dfb48	0.24802887
232	0x3e4ec569	0.20192493
233	0xbe56f756	-0.20992789
234	0x3f218b58	0.63103247
235	0xbc27cca6	-0.010241663
236	0x3e625600	0.22103119
237	0x3effa278	0.4992864
238	0xbd406b3d	-0.04697727
239	0x3dd09897	0.10185354
240	0x3e9fab1c	0.31185234
241	0x3ed16490	0.40897036
242	0x3e547189	0.20746435
243	0xbbc6c675	-0.0060661384
244	0xbe5007b6	-0.20315441
245	0x3ee9c9ef	0.45661876
246	0x3ef67a47	0.48140165
247	0x3eabf44e	0.33584827
248	0xbe8c10e0	-0.27356625
249	0x3ec114d1	0.37711194
250	0x3ead7411	0.33877614
251	0x3e91924b	0.28431925
252	0x3e8ee6e0	0.2791052
253	0x3e1062d6	0.14100203
254	0xbea1d7ec	-0.31610048
255	0xbeb1a352	-0.34694916

predict.0.bias f4 [128]
0	0xbef69553	-0.481608
1	0xbf11a4b4	-0.5689194
2	0x3dd6a8f9	0.10481448
3	0xbf25bf60	-0.6474514
4	0xbf29e3e8	-0.6636338
5	0xbf18b1c2	-0.59646237
6	0xbf2be021	-0.6713887
7	0xbf0934cb	-0.5359618
8	0x3f0ef43c	0.5584142
9	0x3d7831af	0.060594257
10	0xbf901bd0	-1.1258488
11	0xbf0c8632	-0.54892266
12	0x3ef4fd21	0.47849372
13	0xbf185577	-0.5950541
14	0xbf504576	-0.8135599
15	0xbef10698	-0.47075343
16	0xbf00b7cb	-0.50280446
17	0x3cee5f2b	0.029098114
18	0xbea2e5f6	-0.3181607
19	0xbf66a5b9	-0.9009662
20	0xbe1a659d	-0.15077825
21	0x3f20ff41	0.62889487
22	0xbf215f21	-0.6303578
23	0xbf48546c	-0.7825382
24	0xbe7d70bc	-0.24750036
25	0x3dbb18d8	0.09135598
26	0xbf27445a	-0.6533867
27	0x3d9f20e7	0.077699475
28	0x3d5782a8	0.052614838
29	0xbf875e59	-1.0575668
30	0xbee4515a	-0.44593316
31	0xbf5dfc79	-0.8671337
32	0xbf1f95bf	-0.6233787
33	0x3e7a2bda	0.2443079
34	0xbf10203c	-0.56299186
35	0xbf0d28d7	-0.5514044
36	0x3dd24c56	0.10268466
37	0xbf0ca01b	-0.549318
38	0xbed92fdf	-0.42419335
39	0xbf55e509	-0.83552605
40	0x3bc4178a	0.0059842514
41	0xbdf5d902	-0.120042816
42	0xbf352e88	-0.70774126
43	0xbf0832e0	-0.5320263
44	0xbe891b06	-0.2677843
45	0x3daeb1ee	0.08530031
46	0xbd74586b	-0.059654634
47	0x3cb509e7	0.022099448
48	0xbf4b8914	-0.7950604
49	0xbee183ea	-0.44045955
50	0x3e963b95	0.29342332
51	0x3f07bdd4	0.5302403
52	0xbf2ccc66	-0.6749939
53	0xbf5062d7	-0.8140082
54	0xbf017dde	-0.50582683
55	0xbf4be89b	-0.796518
56	0x3e70fd90	0.23534226
57	0x3e1d0268	0.15332949
58	0xbf8f5c59	-1.1200057
59	0xbf09953f	-0.53743356
60	0xbf539c1b	-0.82660073
61	0xbf2ca519	-0.6743942
62	0x3cb947ce	0.022617247
63	0xbed339d9	-0.41255072
64	0xbeef8102	-0.46778113
65	0xbf1a0fd0	-0.6018038
66	0xbec21402	-0.3790589
67	0x3ddcbdc2	0.10778381
68	0xbf547b2e	-0.8300046
69	0x3f193652	0.5984851
70	0x3ce9d047	0.028541697
71	0xbf81e499	-1.0147887
72	0x3f632103	0.88722247
73	0xbe7cdda6	-0.24693927
74	0x3df0c23c	0.11755797
75	0xbf2b0030	-0.6679716
76	0xbeef69a0	-0.46760273
77	0xbf2f43ff	-0.6846313
78	0xbe3bffe8	-0.18359339
79	0xbf146ca9	-0.579783
80	0xbf31da39	-0.69473606
81	0xbf768bc9	-0.96307045
82	0x3d817aee	0.06322275
83	0xbf3089a0	-0.6896
84	0xbc7e9da2	-0.015540512
85	0x3cac48a1	0.021030726
86	0xbdea6ed7	-0.11446922
87	0xbf171ec9	-0.5903135
88	0x3ed98a41	0.42488292
89	0x3d252eea	0.040327944
90	0xbf205f7f	-0.62645715
91	0x3eb03ff5	0.34423795
92	0xbf1d749b	-0.6150605
93	0xbe8a7f79	-0.2705038
94	0x3e45fc1b	0.19334452
95	0xbf5159ca	-0.8177763
96	0xbf0dfa44	-0.5546
97	0x3e5246bf	0.205348
98	0xbef7e819	-0.48419264
99	0xbccb283e	-0.024799462
100	0xbed5b1c2	-0.4173718
101	0x3edb1a71	0.4279361
102	0xbf123023	-0.571047
103	0xbec28bf4	-0.379974
104	0xbf46c81b	-0.77649087
105	0xbdebbd3d	-0.11510704
106	0xbdaff7c0	-0.085921764
107	0xbf37c7c2	-0.7178918
108	0xbeb314e6	-0.34976882
109	0xbeb22b03	-0.3479844
110	0x3ea7d7b5	0.3278176
111	0xbbf2b4fd	-0.0074068294
112	0xbe0996c1	-0.13436414
113	0xbedc5733	-0.43035278
114	0xbed8b2f7	-0.4232404
115	0x3e95d3c5	0.2926313
116	0xbf18fd2e	-0.5976132
117	0xbf4ac977	-0.7921366
118	0xbea73a2f	-0.32661578
119	0xbf33d7ce	-0.70251167
120	0xbf08d750	-0.5345354
121	0xbe1e6d0a	-0.15471283
122	0xbf1d4ee3	-0.61448497
123	0xbf021e1c	-0.50827193
124	0xbf289652	-0.6585437
125	0xbf0e0754	-0.5547993
126	0x3e87423d	0.26417723
127	0xbf689e21	-0.90866286

predict.2.weight f4 [256, 128]
0	0xbf37da56	-0.7181753
1	0xbe8cb185	-0.27479187
2	0x3dc25cc0	0.09490347
3	0xbea6884a	-0.32525855
4	0x3f4ecfcd	0.8078583
5	0xbf6ce4c1	-0.9253655
6	0xbe8dd1c6	-0.27699107
7	0xbf910ded	-1.1332375
8	0xbf3b1e2d	-0.7309292
9	0xbe4d7529	-0.20064224
10	0x3f868516	1.0509365
11	0xbf43bcbc	-0.7645986
12	0xbedd4556	-0.43216962
13	0xbf292ba3	-0.6608221
14	0xbf073c77	-0.5282664
15	0xbf1205b2	-0.5703994
16	0xbcf29bc3	-0.029615289
17	0x3fb89121	1.441929
18	0x3fbf8e4c	1.49653
19	0xbf153ac5	-0.582928
20	0x3f9c7ca2	1.2225535
21	0xbf5b5abd	-0.8568533
22	0xbf2e856f	-0.68172354
23	0x3f2dbd97	0.67867416
24	0xbdb18b9e	-0.08669208
25	0x3e8cc9aa	0.27497607
26	0x3f5356eb	0.825545
27	0x3ee51324	0.44741166
28	0xbee0a751	-0.43877652
29	0x3e2b1464	0.16706997
30	0xbed93858	-0.424258
31	0xbf36219e	-0.71145046
32	0x3fac1180	1.344284
33	0x3bf7e28c	0.0075648483
34	0x3f74b064	0.9558165
35	0xbf5ab414	-0.8543103
36	0x3d656485	0.056004066
37	0xbf363eeb	-0.71189755
38	0xbe6b694c	-0.22989386
39	0x3eefbf76	0.4682576
40	0x3fb685dc	1.4259601
41	0x3f6947b0	0.9112501
42	0xbe8077c9	-0.2509139
43	0x3f98964a	1.1920865
44	0x3f9fb5fd	1.2477413
45	0xbe55d25d	-0.20881028
46	0x3f277c8a	0.65424407
47	0x3fa5f4fc	1.2965388
48	0x3f5442dc	0.8291452
49	0xbf936269	-1.1514407
50	0xbe555579	-0.20833386
51	0xbf8833b6	-1.0640781
52	0xbd7c9bf4	-0.061672166
53	0x3de20253	0.110355996
54	0xbcb8e3d1	-0.022569569
55	0xbf397c20	-0.72455025
56	0xbebc430d	-0.36769906
57	0xbd730406	-0.05933001
58	0x3eece81c	0.46270835
59	0x3ef31263	0.47474965
60	0xbe3e055a	-0.18556729
61	0x3f3f328e	0.74686515
62	0x3f19e515	0.60115176
63	0x3fa55e58	1.2919416
64	0xbf85826b	-1.0430425
65	0x3f2dc7b9	0.6788288
66	0xbf34db09	-0.7064672
67	0x3f4711fb	0.7776181
68	0x3f21b800	0.63171387
69	0xbf68c2f0	-0.9092245
70	0x3f72ff23	0.9492056
71	0xbc377614	-0.011197586
72	0xbf3033dc	-0.6882913
73	0x3fa12c16	1.2591579
74	0x3ea20f90	0.31652498
75	0xbef81d82	-0.48460013
76	0xbecd5106	-0.40100878
77	0xbea6ba8e	-0.32564205
78	0x3f6f5330	0.9348631
79	0xbf3bd09f	-0.73365206
80	0xbe3c37cb	-0.18380658
81	0x3ef53ae0	0.4789648
82	0x3d9575ec	0.072978824
83	0x3f2ac47e	0.66706073
84	0x3f8a38ea	1.0798619
85	0x3e3c75e2	0.18404344
86	0x3f806e94	1.0033746
87	0x3f973981	1.1814424
88	0xbe47f035	-0.19525225
89	0x3e8103df	0.25198266
90	0xbce1c23d	-0.02755844
91	0x3dbd4733	0.09242096
92	0xbf0d4ebc	-0.55198264
93	0x3f7a24a0	0.97712135
94	0xbe602da3	-0.21892409
95	0x3d4982d2	0.049197026
96	0xbf49e65e	-0.7886714
97	0xbeb4c3c3	-0.35305604
98	0xbea4319c	-0.320691
99	0x3fa8063c	1.3126903
100	0xbee2c00f	-0.44287154
101	0xbfcdd52a	-1.6080678
102	0x3ed2b3a2	0.41152674
103	0xbf0d1129	-0.5510431
104	0x3f8f42f1	1.1192304
105	0x3fa63e5b	1.2987779
106	0x3f8945eb	1.0724462
107	0x3e90d4da	0.28287393
108	0xbf547e15	-0.83004886
109	0x3e7e75d0	0.2484963
110	0xbfdaae49	-1.7084438
111	0x3f4eab56	0.8073019
112	0x3fcee44a	1.6163418
113	0xbe89c39f	-0.2690706
114	0xbf5b74b8	-0.85724974
115	0x3ea403a5	0.3203403
116	0xbf3b9b8d	-0.73284227
117	0x3c97b3d1	0.01851836
118	0xbfa6f584	-1.3043675
119	0xbf28a329	-0.6587396
120	0x3ca9e2e4	0.020738073
121	0x3fa2caf1	1.2718183
122	0xbf473ab9	-0.7782398
123	0xbe223e5d	-0.15844102
124	0x3e3cccc0	0.18437481
125	0xbf2a8b24	-0.6661856
126	0xbdb29835	-0.087204374
127	0x3e0d5b36	0.13804325
128	0xbe0e5949	-0.13901247
129	0xbee62aad	-0.44954434
130	0x3ecb012e	0.39649338
131	0xbe6e53b5	-0.23274119
132	0x3d72fb74	0.059321836
133	0xbd9c3a0c	-0.07628259
134	0xbe708032	-0.23486403
135	0xbe1bd1d6	-0.15216765
136	0xbd5d0cbf	-0.053967234
137	0x3e6292c7	0.22126304
138	0xbe11c4af	-0.14235185
139	0xbeef141b	-0.46695027
140	0xbef95e3d	-0.4870471
141	0xbeb170a8	-0.34656262
142	0xbefb3c4f	-0.4906945
143	0xbda2bae8	-0.07945806
144	0xbe72f388	-0.23725712
145	0x3f08c195	0.5342038
146	0x3e48a65b	0.1959471
147	0xbee24e36	-0.44200295
148	0x3e52d0b7	0.20587431
149	0xbef5a39f	-0.47976395
150	0xbe29196e	-0.16513607
151	0xbe01d015	-0.12677033
152	0xbe9c8c6c	-0.30575883
153	0x3ea1b74f	0.31585166
154	0x3ced0849	0.028934615
155	0x3f300c56	0.68768823
156	0xbedec6fc	-0.43511188
157	0xbde68f0e	-0.11257754
158	0xbeb88cb8	-0.3604486
159	0xbf33b714	-0.7020123
160	0x3e5b0bd8	0.21391237
161	0x3e303763	0.17208628
162	0x3da1b8bf	0.07896566
163	0xbf076bcd	-0.52898866
164	0x3f411711	0.7542582
165	0xbeb0823f	-0.3447437
166	0xbe7b0c2e	-0.24516365
167	0x3e8387be	0.256895
168	0x3ebf2368	0.373317
169	0x3e2de75a	0.16982785
170	0xbe7d7724	-0.2475248
171	0x3e0f5ec1	0.1400099
172	0x3e6fa356	0.23402151
173	0x3eb4a177	0.35279438
174	0x3e42b6fc	0.19015115
175	0x3ee3d390	0.44497347
176	0x3d8fbeba	0.070188
177	0xbdfdf82d	-0.124008514
178	0x3e50dfb5	0.20397837
179	0xbebdbd5b	-0.3705853
180	0xbe5765ca	-0.21034923
181	0x3dba1f5e	0.09088014
182	0xbeb2d455	-0.3492762
183	0xbeaf3975	-0.34223524
184	0x3f015be4	0.5053084
185	0x3f001fee	0.5004872
186	0xbe802ef5	-0.25035825
187	0xbec5e65e	-0.3865232
188	0xbe546e4a	-0.20745197
189	0xbcc106aa	-0.023562748
190	0x3edc3b93	0.43014202
191	0xbd60a612	-0.054845877
192	0xbdd8bc95	-0.10582844
193	0x3defa972	0.11702241
194	0xbdb846fe	-0.08997916
195	0x3e739def	0.23790716
196	0x3e015f35	0.12633975
197	0xbcf7734d	-0.030206347
198	0x3ee17b8d	0.44039574
199	0xbe0b4e95	-0.13604195
200	0xbdc1d368	-0.09464151
201	0xbc62e5a8	-0.0138487
202	0x3ee3c42d	0.44485608
203	0xbec341ad	-0.38136044
204	0xbe4bbfb5	-0.19897349
205	0xbe6b89e0	-0.23001814
206	0x3ed8c7cc	0.42339933
207	0xbf0a89e7	-0.5411667
208	0xbe52c55e	-0.20583102
209	0xbe1786c1	-0.14797498
210	0x3ec4bcb1	0.3842521
211	0xbe892288	-0.26784158
212	0x3f16b27a	0.58866084
213	0x3efcdd8b	0.49387774
214	0x3e9de8e2	0.30841738
215	0x3e6649ff	0.22489165
216	0x3e8f8280	0.2802925
217	0x3ee6e681	0.45097736
218	0xbd0c08cc	-0.034188077
219	0x3e82c4b4	0.25540698
220	0xbe419fa0	-0.18908548
221	0xbc0daa2c	-0.008646529
222	0xbe6cbf32	-0.2311981
223	0xbe41297c	-0.18863481
224	0xbf23ed33	-0.6403381
225	0x3e08bd3e	0.1335344
226	0xbe714c75	-0.23564322
227	0x3f1b66f5	0.60703975
228	0xbec4316d	-0.3831896
229	0xbf272b84	-0.65300775
230	0xbdb785fc	-0.08961102
231	0xbeb6469b	-0.35600743
232	0x3e169247	0.14704238
233	0x3ee44688	0.4458506
234	0x3e8303f1	0.25588945
235	0xbe2bb209	-0.16767134
236	0xbddc161e	-0.10746406
237	0xbe740c86	-0.23832902
238	0x3dc90372	0.0981511
239	0x3ee96d2e	0.4559111
240	0x3e6ae49e	0.22938773
241	0xbe63a705	-0.22231682
242	0x3ddf093e	0.10890435
243	0xbdf99222	-0.12186076
244	0xbf3b4be2	-0.73162663
245	0xbe909ba8	-0.28243756
246	0xbdd8b829	-0.10582001
247	0xbe40a33d	-0.1881227
248	0xbe70cc6a	-0.23515478
249	0x3eb1be10	0.3471532
250	0xbe03da0e	-0.1287615
251	0x3d5185c9	0.051152978
252	0xbe618673	-0.22023945
253	0xbd4f5528	-0.05061832
254	0x3f104c2a	0.5636622
255	0x3e0b5d6d	0.13609858

predict.2.bias f4 [256]
0	0x3d7eae89	0.06217817
1	0x3ca03bcc	0.019559763
2	0xbe788227	-0.24268399
3	0x3d650c49	0.05591992
4	0x3e094dbf	0.13408564
5	0x3e03affd	0.12860103
6	0x3d5ecfea	0.0543975
7	0xbd8c3c17	-0.06847399
8	0xbe4d7256	-0.20063147
9	0xbe73c4ea	-0.23805586
10	0x3d8ae1d4	0.067813545
11	0x3d498761	0.049201373
12	0x3c9e6107	0.019333376
13	0xbe4a6ba5	-0.19767626
14	0x3cf9898f	0.0304611
15	0x3e0f3c13	0.1398776
16	0xbe006e68	-0.12542117
17	0x3d859501	0.06522561
18	0xbe16357a	-0.14668837
19	0x3dd1a134	0.10235825
20	0x3e1a0eca	0.15044704
21	0xbe46eba6	-0.1942583
22	0xbe828423	-0.25491437
23	0xbe4ce33a	-0.20008555
24	0x3d5b7baf	0.05358475
25	0xbe5a2766	-0.21304092
26	0xbdbedf7a	-0.093199685
27	0x3de9a87b	0.11409088
28	0xbe6a5230	-0.22882915
29	0xbe41f801	-0.18942262
30	0xbd5778cb	-0.05260543
31	0x3d915d51	0.07097877
32	0xbe8a8ec8	-0.27062058
33	0x3de7fa93	0.1132709
34	0x3de0ea02	0.109821334
35	0x3e084b30	0.13309932
36	0x3d93e86a	0.07222064
37	0xbe5a95b8	-0.21346176
38	0xbe4b66f2	-0.1986349
39	0x3d538fe2	0.05165089
40	0x3ef51617	0.47868416
41	0xbe849452	-0.2589441
42	0x3dd5d729	0.10441429
43	0xbe4413db	-0.191482
44	0xbe4d51f6	-0.20050797
45	0xbe4b8313	-0.1987422
46	0x3dd1d005	0.10244755
47	0x3e028669	0.12746586
48	0xbe203188	-0.15643895
49	0x3ba2135f	0.004946157
50	0x3dd5dc9e	0.1044247
51	0x3d14134f	0.036151227
52	0xbe3d8d3f	-0.18510912
53	0x3d990e40	0.07473421
54	0xbe7beb83	-0.2460156
55	0xbe4ca4b3	-0.19984703
56	0xbe50db5a	-0.20396176
57	0xbe406c1a	-0.18791237
58	0xbd9f9305	-0.077917136
59	0x3dc247a7	0.09486323
60	0xbe5ce20a	-0.21570602
61	0xbe6416a7	-0.22274266
62	0x3d3d8556	0.046269737
63	0xbe4dba3f	-0.20090578
64	0xbe55fbb8	-0.20896804
65	0xbe709dbc	-0.23497671
66	0xbe221402	-0.15827945
67	0xbcb7b33b	-0.022424331
68	0xbd921512	-0.07132925
69	0xbe815800	-0.2526245
70	0xbe5323fa	-0.20619193
71	0x3dcf50f8	0.101228654
72	0x3c6add85	0.014335041
73	0xbe40114d	-0.187566
74	0xbe611602	-0.21981052
75	0xbe33905b	-0.17535536
76	0x3de52cab	0.1119016
77	0x3d2e2543	0.042516004
78	0xbe53fe70	-0.20702529
79	0xbe80b369	-0.2513688
80	0x3ddaeb89	0.10689456
81	0x3dbbc516	0.091684505
82	0x3e09928a	0.13434806
83	0x3dd6f545	0.10496
84	0xbe2df67a	-0.16988555
85	0xbe848783	-0.25884637
86	0xbe42d34b	-0.19025914
87	0xbe7ada7e	-0.2449741
88	0x3d925bd2	0.071464196
89	0x3d773ba5	0.060359616
90	0x3dd165d5	0.10224501
91	0x3c175a51	0.009237842
92	0x3dd38e07	0.10329824
93	0x3d418294	0.04724367
94	0xbdd2aa8a	-0.10286434
95	0x3db748fd	0.08949468
96	0x3ca447b4	0.020053722
97	0xbe83ec3d	-0.25766173
98	0xbca3f90b	-0.020016214
99	0x3daac5b6	0.083384916
100	0xbe861c29	-0.2619336
101	0x3d9d3fc8	0.07678181
102	0x3d808ae6	0.06276493
103	0x3d631b98	0.055446237
104	0x3e2d4368	0.16920245
105	0xbd3ff256	-0.04686197
106	0xbd47186d	-0.04860728
107	0x3e19766f	0.14986585
108	0x3da34045	0.07971243
109	0xbe806522	-0.25077158
110	0xbe46ed9e	-0.19426581
111	0xbe6c13d4	-0.23054439
112	0xbe374df5	-0.17900832
113	0xbe571009	-0.2100221
114	0xbe7297cb	-0.23690717
115	0x3de3505f	0.11099314
116	0x3a8c54c7	0.0010706418
117	0x3db7b683	0.08970358
118	0xbe4a5e26	-0.19762477
119	0x3e0f1d23	0.13975959
120	0xbe4224a1	-0.18959285
121	0xbe5026f5	-0.20327361
122	0x3d4f5e94	0.050627306
123	0xbe8462bc	-0.25856578
124	0x3d94c3be	0.07263897
125	0xbe48c316	-0.1960567
126	0xbe80f054	-0.25183356
127	0xbe699d0f	-0.2281382
128	0xbe40fb3b	-0.18845837
129	0x3d8d13a6	0.06888513
130	0xbc45b852	-0.012067871
131	0xbe848246	-0.2588064
132	0x3d9663ca	0.07343252
133	0xbe5411c3	-0.207099
134	0xbe837392	-0.2567411
135	0xbe5a48c3	-0.21316819
136	0xbe51997a	-0.20468703
137	0xbe4dcac6	-0.20096883
138	0xbe884793	-0.26617107
139	0x3b562929	0.0032678342
140	0x3d9c0e2c	0.076198906
141	0xbcc2e620	-0.023791373
142	0xbe7e4e63	-0.2483459
143	0x3e2328ad	0.15933485
144	0x3e38e0b8	0.18054473
145	0xbe58bd82	-0.21166041
146	0x3d8c2abc	0.068440884
147	0x3de2fa7b	0.110829316
148	0x3d51de2e	0.051237278
149	0xbe4c0c43	-0.19926552
150	0x3dda49dc	0.10658619
151	0xbe47af71	-0.1950052
152	0xbe82ac36	-0.25522012
153	0xbe26c4b8	-0.1628598
154	0xbe83dd7f	-0.25754926
155	0xbe5680ae	-0.20947525
156	0x3dc287c2	0.0949855
157	0x3cf6d067	0.03012867
158	0x3da62912	0.08113302
159	0xbe84434d	-0.25832596
160	0x3dac8956	0.08424632
161	0xbe6f0447	-0.23341475
162	0x3ca0f74e	0.019649174
163	0xbe46fc7f	-0.19432257
164	0x3de18e73	0.11013498
165	0xbe510aab	-0.20414226
166	0xbe414742	-0.18874839
167	0x3dfcbd23	0.123407625
168	0xbd5a548e	-0.053303294
169	0xbe4bc29a	-0.19898453
170	0xbe425317	-0.18977009
171	0xbbdc562c	-0.0067241397
172	0xbe64a288	-0.22327626
173	0x3ddde81f	0.10835289
174	0x3d9792ba	0.07401033
175	0xbe440eb8	-0.1914624
176	0xbe34b42f	-0.1764686
177	0x3da22b96	0.079184696
178	0x3e2f5183	0.17120938
179	0xbe4dbb47	-0.20090972
180	0xbe691b4c	-0.22764319
181	0xbe821155	-0.25403848
182	0xbe4cafc8	-0.1998893
183	0xbe52705f	-0.20550679
184	0xbe5333a7	-0.20625173
185	0x3de9a167	0.11407738
186	0x3c4eece0	0.012629718
187	0xbcd30172	-0.025757525
188	0xbe7ddc33	-0.2479103
189	0xbe0ba368	-0.13636553
190	0xbded6f14	-0.11593452
191	0xbdc08486	-0.09400277
192	0x3dacc928	0.08436805
193	0xbe809835	-0.25116125
194	0x3e082bcc	0.13297957
195	0xbe82db38	-0.25557876
196	0xbe593b5f	-0.21214055
197	0x3da838b6	0.08213942
198	0xbcfb4cbb	-0.030676236
199	0xbe77477a	-0.2414836
200	0x3e0a54d5	0.13508923
201	0xbe793d4c	-0.24339789
202	0x3d57c655	0.05267938
203	0xbe40db8d	-0.18833752
204	0xbe711815	-0.23544343
205	0x3df7a80b	0.120925985
206	0xbe4f7b41	-0.20261861
207	0x3d8abea2	0.067746416
208	0xbe7fa2fd	-0.24964519
209	0x3d85661c	0.065136164
210	0xbe632470	-0.22181869
211	0xbe8b1dc4	-0.27171147
212	0x3d8f785d	0.07005379
213	0xbe7cc6c7	-0.24685203
214	0xbe694b05	-0.22782524
215	0xbe4f2572	-0.20229128
216	0x3d0a2056	0.033722244
217	0x3d39d8ae	0.045372657
218	0x3d8cf657	0.06882923
219	0xbcb31057	-0.021858377
220	0xbe5f4590	-0.2180388
221	0x3d83f575	0.064433016
222	0x3d86e18a	0.06585987
223	0xbe4dd55e	-0.20100924
224	0xbe6bfbe5	-0.23045309
225	0xbe75fed9	-0.24022998
226	0x3ddc8780	0.10768032
227	0x3dbcdeb8	0.09222168
228	0x3dd238f4	0.10264769
229	0xbe80840e	-0.2510075
230	0xbca64ffa	-0.020301808
231	0xbe761f0e	-0.24035284
232	0xbe56e6fc	-0.20986551
233	0x3de70d37	0.112818174
234	0xbe39cb53	-0.18143968
235	0x3d94045c	0.07227394
236	0x3dce5d89	0.10076434
237	0xbe845eff	-0.25853726
238	0xbe84bcc7	-0.25925276
239	0x3dc245cf	0.09485971
240	0x3ddd10c2	0.10794212
241	0xbe88ce07	-0.26719686
242	0xbe5e8421	-0.2173009
243	0x3adf4277	0.0017033358
244	0xbe755f8f	-0.23962234
245	0xbe38146a	-0.17976537
246	0xbe567891	-0.2094443
247	0xbe420dbf	-0.18950556
248	0xbe4a69ca	-0.19766918
249	0xbe424bc6	-0.18974218
250	0xbe38801a	-0.18017617
251	0x3d90bcfb	0.07067295
252	0xbe4944db	-0.19655173
253	0xbc65e0e7	-0.014030672
254	0xbe776a51	-0.2416165
255	0xbe5d7545	-0.21626766

predict.4.weight f4 [64, 256]
0	0x3ab31956	0.0013664167
1	0xbc22addf	-0.009929149
2	0x3bf5bd88	0.0074994005
3	0xbb7bcdb8	-0.0038422178
4	0xbaf9e79f	-0.0019066221
5	0xbbe4b0c2	-0.006979079
6	0x3ab03cbf	0.0013445838
7	0xbb0bcbce	-0.0021331194
8	0x3c01941c	0.007908847
9	0xbc1f425f	-0.009720414
10	0xbbf09535	-0.0073420056
11	0xbb95c6c1	-0.0045708125
12	0x3ac53ab9	0.0015047408
13	0xbb03058c	-0.001999232
14	0x3a798953	0.0009519059
15	0x3ac9df05	0.0015401548
16	0x3a3e4ec3	0.0007259661
17	0xbbb8480d	-0.0056238235
18	0x3c02b0bc	0.007976707
19	0x3a632dd7	0.00086661935
20	0xbaaf3cd4	-0.0013369569
21	0x3be46fda	0.0069713416
22	0xbbb746c6	-0.0055931536
23	0x3be0612c	0.0068475213
24	0x3a7d5272	0.00096634694
25	0x3b60ac58	0.0034282412
26	0xbc17ca56	-0.009264549
27	0xbc0085ad	-0.007844371
28	0x3bbed333	0.0058235168
29	0x3b319f0a	0.0027102851
30	0xbba5ef90	-0.0050639585
31	0xb96c9523	-0.00022562272
32	0xbb8a439a	-0.0042194845
33	0x3c179504	0.009251837
34	0xbc21684b	-0.009851526
35	0xbc0defd6	-0.008663138
36	0xbc0f82c4	-0.008759204
37	0xbbf5db36	-0.0075029386
38	0xbabac1d5	-0.001424844
39	0x3b7cbc5f	0.0038564426
40	0xbb9237e7	-0.0044622305
41	0x3b500246	0.0031739636
42	0xbc1e8b96	-0.009676835
43	0x3bbb273d	0.0057114647
44	0xbbf285bf	-0.0074011977
45	0xbacc066f	-0.0015565882
46	0x3bacd809	0.005274777
47	0xbc14a2f4	-0.009072054
48	0xbc0e534b	-0.008686851
49	0x3bea1e6c	0.00714474
50	0xbc3daca3	-0.011576804
51	0xbb310d12	-0.0027015847
52	0xbb997141	-0.0046826904
53	0x3ba1459f	0.0049216296
54	0xbb420e19	-0.0029610454
55	0x3afb5b49	0.0019176985
56	0xbbc3a1d5	-0.0059702196
57	0x3bab69ab	0.0052311025
58	0xbb591f5e	-0.0033130269
59	0x3ab8bda9	0.0014094609
60	0xbb31e6af	-0.0027145555
61	0xb9cbad5a	-0.00038848334
62	0xbba3ebb8	-0.005002465
63	0x3b1daa1c	0.0024057692
64	0x3b23f5f5	0.0025018428
65	0xbad3ba83	-0.0016153607
66	0x3b9c83d7	0.0047764587
67	0xbad7dec0	-0.0016469583
68	0xbc02da86	-0.00798667
69	0xbc18105b	-0.009281243
70	0x3bdf767f	0.0068195458
71	0xbb48f001	-0.0030660632
72	0x3b696451	0.0035612772
73	0x3bdd3e51	0.0067518135
74	0x3ba9416b	0.005165269
75	0xbc0cb566	-0.008588171
76	0xba144378	-0.00056558056
77	0xbbf8f208	-0.0075972117
78	0xbbbf24a2	-0.0058332244
79	0xbb9a213c	-0.004703669
80	0xbbee26e9	-0.007267822
81	0xbb5d1605	-0.0033735048
82	0xbc52d3bf	-0.012867867
83	0x3b5ed552	0.003400166
84	0xbc0d87d8	-0.008638345
85	0xbbf57070	-0.0074902102
86	0xbadd7c37	-0.0016897981
87	0xbb8a0534	-0.004212046
88	0x3b761d52	0.0037554097
89	0xbb4fd38a	-0.003171178
90	0xbbe7b988	-0.0070716776
91	0x3ae898c4	0.0017745723
92	0xbc4017ba	-0.011724407
93	0xbbffddc0	-0.007808417
94	0xbab6663f	-0.001391597
95	0x3b5ef6e0	0.003402166
96	0xbb2c4d65	-0.0026291248
97	0xbbeebe4c	-0.0072858687
98	0x3b4471ad	0.0029974983
99	0xbbb203b9	-0.0054325727
100	0xbb290bb8	-0.0025794338
101	0xbb8b6086	-0.00425345
102	0xbc55a5ad	-0.013039988
103	0xbbed7a9e	-0.007247283
104	0x386fcb20	5.7171215e-05
105	0x3b90eec4	0.0044229943
106	0xbaea1055	-0.001785765
107	0x3b400324	0.0029298747
108	0x3bd000e1	0.006347761
109	0x3bef9f20	0.0073126704
110	0xbaef0108	-0.001823456
111	0xbb7c6591	-0.0038512687
112	0x3bb16226	0.0054133115
113	0xbbcf9bfa	-0.0063357325
114	0x3bbb12f5	0.005709047
115	0xbac5e193	-0.0015097134
116	0xbb765bdf	-0.003759138
117	0x3ab683f2	0.0013924821
118	0xbbcca8a7	-0.006245691
119	0xbc132dc0	-0.008983076
120	0x3b2e35ab	0.0026582282
121	0xbba3727c	-0.004988013
122	0x3b9ccaf5	0.0047849366
123	0xbb905aeb	-0.0044053695
124	0xbb6eb6c6	-0.003642486
125	0xbbcb1050	-0.006197013
126	0xbbd4175f	-0.0064725126
127	0xba760600	-0.00093850493
128	0xbbf1cab0	-0.0073788986
129	0xbc0df239	-0.008663707
130	0xb7580ea8	-1.2878016e-05
131	0x3aa68436	0.0012704197
132	0x3b8f6479	0.004375991
133	0xbc1e5c9b	-0.009665634
134	0xbbed5c3b	-0.0072436607
135	0x3b8c92dc	0.004289968
136	0xbbcb0877	-0.0061960774
137	0xbafd677c	-0.0019333209
138	0x3b7ffad4	0.0039059417
139	0xbb5eeaee	-0.003401454
140	0xbbcb87eb	-0.006211271
141	0x3b8ad4b8	0.004236784
142	0xbc00cb04	-0.007860903
143	0xbbd04c7b	-0.0063567734
144	0xbc135707	-0.008992917
145	0xbbb212ce	-0.0054343706
146	0xbc3a2d1e	-0.011363296
147	0x3baa8c2b	0.0052046976
148	0xba59362c	-0.00082859653
149	0x3a401b04	0.00073282444
150	0x3bf9d7e0	0.0076246113
151	0x3a9be806	0.001189471
152	0x3b08ac82	0.0020854776
153	0xbb823abf	-0.0039742882
154	0xbb6e3d27	-0.0036352368
155	0xbb2f75d2	-0.0026773107
156	0xbc20cc4b	-0.009814332
157	0xbabed866	-0.0014560341
158	0xbbdd4109	-0.0067521376
159	0xbbac159c	-0.0052515995
160	0xbb1f1d6b	-0.002427901
161	0x3bfa0c6e	0.0076308763
162	0xba052473	-0.0005078979
163	0xbbd8555f	-0.006601974
164	0x3b203ce1	0.002445035
165	0xbbfe766e	-0.0077655828
166	0xbada7c2d	-0.0016669087
167	0xbb8b85b9	-0.0042578843
168	0xbb7c09ca	-0.0038457983
169	0xbbd3f3c7	-0.0064682695
170	0xbb050ef3	-0.00203031
171	0xbba8d817	-0.005152713
172	0xbc050a6b	-0.00812016
173	0xbb35e92a	-0.0027757385
174	0x3a512aba	0.0007979084
175	0x3b2a3749	0.0025972894
176	0xbb8a0cc6	-0.0042129485
177	0x3be18302	0.0068820724
178	0xbc366fbf	-0.011135041
179	0x3a3c9ac6	0.0007194694
180	0x3a75403d	0.00093555806
181	0xb9bffac5	-0.00036617197
182	0x3bbdb84f	0.0057897936
183	0xbbd27691	-0.0064228256
184	0xbaf72157	-0.001885454
185	0xb8cc30d2	-9.7365715e-05
186	0xbbd6543a	-0.0065408023
187	0xbc16a09d	-0.009193567
188	0xbb4cd2b1	-0.0031253512
189	0x3bca0eac	0.0061663
190	0xbb5960d1	-0.003316928
191	0x3b6fcd8f	0.0036591028
192	0xbae5d7f6	-0.0017535675
193	0xbb732da6	-0.0037106066
194	0xbb64a848	-0.0034890343
195	0x3be00864	0.0068369377
196	0x396eb6c1	0.0002276553
197	0xbac677fc	-0.0015141959
198	0x39b9a4cd	0.00035408736
199	0x3baffbd4	0.0053705964
200	0xbc08b928	-0.008344926
201	0x3baa803c	0.005203275
202	0x3be1f8ba	0.0068961056
203	0xbbc175e2	-0.0059039453
204	0x3b12761e	0.0022348235
205	0x3b119cd7	0.0022218728
206	0x3be38e6b	0.006944468
207	0xbbd6d718	-0.006556403
208	0xbb2b891b	-0.002617425
209	0xba73de42	-0.00093028334
210	0x3bdb68df	0.006695851
211	0xbbb81e77	-0.005618866
212	0xbbec83d6	-0.0072178645
213	0xbc1b6a6e	-0.009485824
214	0xbb9ba4b2	-0.004749858
215	0xbba62fd3	-0.005071619
216	0x3ac6155e	0.0015112569
217	0x3bf11848	0.007357631
218	0x3b86cf3b	0.0041140593
219	0xbbb748e1	-0.0055934046
220	0xb9fce262	-0.00048233854
221	0xbc5108d2	-0.012758451
222	0xbc0720c4	-0.008247558
223	0xbadd0d36	-0.0016864899
224	0xbbbb540b	-0.005716806
225	0xbc098d66	-0.008395528
226	0xbbfe2f68	-0.007757116
227	0x3b9c241c	0.0047650468
228	0x3a468173	0.000757239
229	0xbc0ec9db	-0.008715118
230	0xbbbceb17	-0.0057653296
231	0x3b1645fe	0.0022929902
232	0x3b8798af	0.0041380743
233	0xbc38dc57	-0.011283002
234	0x3be98388	0.0071262754
235	0x3ad48d5b	0.0016216444
236	0x3bc400f2	0.005981558
237	0xba211ba7	-0.0006145783
238	0x3be2f03a	0.00692561
239	0x3925d572	0.00015815141
240	0x3be2c620	0.006920591
241	0xba5fe4bf	-0.0008540861
242	0xba4c7054	-0.00077987206
243	0xbc20ace0	-0.009806842
244	0xbbdee4c4	-0.0068021733
245	0xbbe09792	-0.006854006
246	0xbc13e9c7	-0.009027905
247	0x3bf4b045	0.007467302
248	0x3be98c7c	0.0071273427
249	0x3bfcdd2f	0.007716797
250	0xbbe92ee4	-0.0071161855
251	0x3b9df5b2	0.004820549
252	0x3b55ae0f	0.0032604968
253	0xbb1c4d78	-0.0023849886
254	0xbb510271	-0.0031892324
255	0xba546b54	-0.00081031513

predict.4.bias f4 [64]
0	0xbb9979f9	-0.0046837297
1	0xbd7ef796	-0.062247835
2	0xbd1d6abb	-0.038431864
3	0xbe07017f	-0.13184164
4	0xbdd9fab0	-0.10643518
5	0xbbd79558	-0.0065790825
6	0xbdab41d6	-0.083621666
7	0x3e15104c	0.14556998
8	0xbe015920	-0.12631655
9	0xbc0ba8fe	-0.008524178
10	0xbe2055fe	-0.15657803
11	0xbddcccbc	-0.107812375
12	0xbde332ae	-0.11093651
13	0x3e20e7eb	0.1571347
14	0x3e1dedfb	0.15422814
15	0xbc229336	-0.009922793
16	0xbc1fc753	-0.009752112
17	0xbe1b3bf2	-0.15159586
18	0xbc2f9353	-0.010716277
19	0xbc71dc13	-0.014761942
20	0xbc19d3cc	-0.009388875
21	0xbe024f40	-0.12725544
22	0xbe256368	-0.16151202
23	0xbc48beaa	-0.012252489
24	0xbdd0caaa	-0.10194905
25	0x3e1a8870	0.1509111
26	0xbc1859f0	-0.0092987865
27	0xbe11aeae	-0.14226791
28	0x3e1141bd	0.14185233
29	0xbd964f55	-0.0733935
30	0xbeb226ad	-0.34795132
31	0xbc251529	-0.010075846
32	0xbcaa8601	-0.020815851
33	0x3e1a0ade	0.15043208
34	0xbdf2ce02	-0.11855699
35	0xbc874a9c	-0.016515069
36	0xbdc59334	-0.096472174
37	0xbdb023af	-0.08600556
38	0xbd13df66	-0.03610172
39	0xbc7477eb	-0.014921169
40	0xbba29d25	-0.0049625807
41	0x3e95ebcd	0.29281464
42	0x3e14ec62	0.14543298
43	0xbe18f566	-0.14937362
44	0xbdd6395b	-0.104601584
45	0xbdeda2e0	-0.116033316
46	0xbdd0a797	-0.10188215
47	0xbe279fab	-0.16369502
48	0x3e2c3e02	0.16820529
49	0xbd1e9444	-0.038715616
50	0xbb83e2eb	-0.0040248535
51	0x3e1b96f7	0.15194307
52	0xbdbe49d4	-0.09291425
53	0xbb8cec2a	-0.004300614
54	0xbe0775e7	-0.1322857
55	0xbcae1abe	-0.021252986
56	0xbf721b83	-0.9457323
57	0xbe17a034	-0.14807206
58	0xbe122541	-0.14272024
59	0xbda3154b	-0.07963046
60	0xbdeed029	-0.11660797
61	0xbf88e0df	-1.0693625
62	0xbdda2a03	-0.10652544
63	0x3e151e74	0.14562398

predict.7.weight f4 [1, 64]
0	0x3c4077ad	0.011747283
1	0xbf649aac	-0.8929851
2	0x3c9638cc	0.01833763
3	0xbf482550	-0.78181934
4	0xbf663397	-0.8992247
5	0xbb7f9984	-0.0039001415
6	0xbf503700	-0.81333923
7	0xbf18484c	-0.59485316
8	0xbf5fba5a	-0.87393725
9	0x3b86154f	0.0040918957
10	0xbf4d31d1	-0.8015414
11	0xbf61dd78	-0.8822856
12	0xbf50f936	-0.81630266
13	0xbf1dc9f4	-0.6163628
14	0xbf144480	-0.5791702
15	0xb951d429	-0.00020010829
16	0x3a750a9f	0.0009347591
17	0xbf56bab7	-0.83878654
18	0x3b0f4fa8	0.0021867547
19	0x3b068aee	0.0020529586
20	0xbb39c3a2	-0.0028345366
21	0xbf60ac53	-0.87762946
22	0xbf6262f0	-0.88432217
23	0x3b8d109c	0.0043049585
24	0xbf5886b6	-0.8458055
25	0xbf2b137b	-0.668266
26	0x3a33ab01	0.00068537897
27	0xbf53aafe	-0.8268279
28	0xbf16c616	-0.58896005
29	0xbf6e7d65	-0.93160087
30	0x3cc77c8e	0.024351384
31	0x3a9917a1	0.0011680016
32	0xba2b645b	-0.00065380865
33	0xbf210a3b	-0.62906235
34	0xbf56ba65	-0.83878165
35	0xbb32248a	-0.0027182424
36	0xbf680ae4	-0.9064162
37	0xbf5f022c	-0.8711269
38	0x3b8d1055	0.0043049254
39	0x3c57268b	0.013131748
40	0xbb5e3812	-0.0033907932
41	0xbe7acccf	-0.24492191
42	0xbf21d153	-0.6321003
43	0xbf61fa37	-0.8827242
44	0xbf4dc719	-0.80381924
45	0xbf5216f6	-0.82066286
46	0xbf486fe5	-0.7829574
47	0xbf5399fb	-0.8265683
48	0xbf25c63e	-0.6475562
49	0xbccd2deb	-0.02504631
50	0x3a9e4ccf	0.0012077334
51	0xbf1a422a	-0.6025721
52	0xbc5be5de	-0.013421504
53	0x3948b8cd	0.0001914233
54	0xbf5917d4	-0.84801984
55	0x3ae58f3a	0.0017513998
56	0x4004c7a3	2.0746849
57	0xbf4b9172	-0.79518807
58	0xbf4ca350	-0.79936695
59	0xbf613e91	-0.87986094
60	0xbf558273	-0.83402175
61	0x4004cdeb	2.0750682
62	0xbf5343c5	-0.82525283
63	0xbf1c87c1	-0.61144644
